model.pth (torch, 288031 bytes, 6 tensors)

lstm.weight_ih_l0 f4 [512, 7]
000000 d2 73 89 bd 67 14 f8 3c ea 8b d2 bc 9b aa 89 bd
       -0.06711544 0.030283166 -0.025701482 -0.067219935
000010 01 76 b5 bd 3b 10 39 bc 5e 8c 9e bc 44 af fc 39
       -0.08860398 -0.011295374 -0.019354042 0.0004819577
000020 ba d0 e4 3d 75 63 79 bd 63 06 a7 bb 8e 0c 0c 3d
       0.11172624 -0.060885865 -0.005097197 0.03419166
000030 f0 5f 1b 3e 5e b2 24 bd 55 42 94 3d d7 9d 98 3d
       0.15173316 -0.040209167 0.07239214 0.074519806
000040 4f c3 f8 bb 27 ce c4 bc 5e 3b f0 3d 94 89 e9 bc
       -0.007591642 -0.024024082 0.117300734 -0.028507985
000050 42 4d e8 3d 18 f7 56 bd 8a c0 91 3d 84 0b 73 3d
       0.11342861 -0.05248174 0.07116802 0.059337154
000060 5c ea 3e bd 52 87 30 3b 3e 55 4d 3d b1 c8 0c bd
       -0.04661022 0.0026936126 0.05013012 -0.03437108
000070 50 72 cc bc fc 29 4f bd bc ad f3 bc 18 3d c4 bc
       -0.024956852 -0.05057715 -0.029745929 -0.023954913
000080 c3 e5 1f 3d a3 56 e0 ba 38 17 61 3d 27 03 a8 3c
       0.039037477 -0.0017115664 0.054953784 0.020509316
000090 c4 83 7a 3d 65 b8 36 3d 77 e9 70 3d 0d 41 02 3e
       0.061160818 0.044609446 0.0588164 0.12720127
0000a0 a5 30 a2 3d e3 79 72 bc 17 70 e0 bc 96 83 25 3c
       0.079194345 -0.014799568 -0.027397199 0.010102173
0000b0 13 a1 4c bd c5 80 98 bd c8 76 4a 3d 25 46 e6 3d
       -0.0499583 -0.07446436 0.049429685 0.11243848
0000c0 f1 15 cf 3d 44 ed b1 3c e8 e0 54 bc ec da 68 3d
       0.10111607 0.021719582 -0.012993075 0.056849405
0000d0 86 e3 14 3c ae bb f0 3d 47 47 19 3d d7 f3 be bc
       0.009087449 0.11754547 0.03742149 -0.023309631
0000e0 78 f1 c3 3d a8 70 96 bc df d8 84 bd a4 6c 6e bd
       0.09567541 -0.018364266 -0.064866774 -0.058209077
0000f0 b2 13 ee bc a5 33 7f bc 83 91 9e bd 73 6b 38 3d
       -0.029062126 -0.015576278 -0.07742598 0.045024347
000100 27 b9 e3 3d 11 74 08 3c 98 fe 5c 3c bc db 86 3c
       0.111192994 0.008328454 0.013488434 0.0164622
000110 3e 5d 04 3d 56 5c 04 3e dc 19 8d bd 50 de 65 bc
       0.032315485 0.12925848 -0.06889698 -0.014030054
000120 79 d5 58 bd 45 bc 13 3d bf 0e 5a bb 89 41 09 bd
       -0.05293796 0.03606822 -0.003327295 -0.033509765
000130 66 fa 69 bd e4 50 ef 3b 16 ab f2 3d 0c bd aa 3d
       -0.057123564 0.007303344 0.11849038 0.08336839
000140 65 c9 0f bd 7c 9f 38 3d ca b8 42 3d 09 0a 25 3d
       -0.035104174 0.04507397 0.04753951 0.040292773
000150 26 9d 95 bd c8 ec a7 3d 9a 7d b1 3d 05 83 c6 bb
       -0.07305364 0.08199459 0.08666535 -0.006058099
000160 d0 63 4d 3d 0a 2c e5 3d 9f 04 94 bb c5 d3 27 3d
       0.050144017 0.111900404 -0.0045171524 0.040973444
000170 fd 58 0f ba ab c0 a1 3d 1e 41 9c 3c d5 91 f3 3c
       -0.00054682774 0.078980766 0.019074019 0.029732624
000180 dd 47 6f 3d fd 8c 9d 3d 71 ff d0 3c 9d ad 0d 3d
       0.058418144 0.07692907 0.025512429 0.0345894
000190 5f 10 69 3d b8 bb b0 3d 36 7a 23 3e ea b5 01 bd
       0.05690038 0.086295545 0.15964589 -0.031667627
0001a0 a1 77 df bc 9f b8 28 bd 73 87 3f bd 74 ef 32 bd
       -0.027278723 -0.041191693 -0.046760034 -0.04368539
0001b0 4c 02 b6 3c 67 02 1e bd 00 33 84 bd d8 96 c8 bd
       0.022217892 -0.03857651 -0.0645504 -0.09794396
0001c0 04 d1 9d 3d f5 41 23 3d 66 fc 80 bc 77 9b a0 bd
       0.07705882 0.039857823 -0.015745353 -0.078421526
0001d0 d9 57 83 bd 7c cd 29 bd 28 b7 bd bd f7 1a b3 bb
       -0.0641324 -0.04145573 -0.0926345 -0.005465861
0001e0 e0 ce 43 bd 83 2a 80 bc 9d 2f ad 3d f6 45 08 3c
       -0.047804713 -0.015645271 0.08456347 0.008317461
0001f0 ff 1b 2d 3d 1a 4b ad bb 1f 2f f3 bb ef bc 29 bc
       0.042263027 -0.005288494 -0.0074213888 -0.010359987
000200 72 94 68 3d 34 99 dd 3d dc bc 6f 3b 0a 3e 43 bd
       0.056782193 0.10820237 0.0036581075 -0.047666587
000210 17 1c e5 3d 16 20 36 3c 8f 59 e1 3c f9 cd 83 bd
       0.11186998 0.011116048 0.027508525 -0.064357705
000220 e8 d9 5a bc 36 bf 99 3d 34 59 81 3b 78 0b a5 3d
       -0.013357617 0.07507174 0.0039474014 0.08058828
000230 22 a3 9b bd c9 63 0b 3c 26 50 a2 bd 25 a5 f9 3c
       -0.075994745 0.008507677 -0.07925443 0.030474255
000240 61 e3 14 3e 66 57 9a 3c 44 82 75 bd f7 ea 98 bd
       0.14539863 0.018840503 -0.059938684 -0.07466691
000250 af 30 94 3d 7a ba 59 bd f2 30 fb bd a3 21 f1 3c
       0.07235848 -0.053156354 -0.12265195 0.029434985
000260 4a 38 d8 3d d7 3e ea bb d4 75 b4 3d 50 88 15 3d
       0.10557611 -0.0071486044 0.088115364 0.03650695
000270 04 3f b8 bb 5c c8 f6 bc 2c 12 d4 3a 14 a4 4a 3d
       -0.0056227464 -0.030124836 0.0016179732 0.049472883
000280 ef 8d 8e bd 4f d1 4e 3d 79 a1 e2 3d fa 58 ab 3c
       -0.069606654 0.05049258 0.11065955 0.02091645
000290 d4 a8 ae 3d 6f 6e 04 3e c4 76 c3 bc ce 91 06 3d
       0.08528295 0.12932752 -0.023860343 0.032853894
0002a0 33 24 a7 3d cd e1 0c 3c ca 80 a7 bd 2a 7b 60 bd
       0.08161201 0.008598757 -0.081788614 -0.05480496
0002b0 b3 3a 97 3c 62 96 ac 3c 7e a4 db 3d 48 3f b2 3d
       0.018460607 0.021067802 0.10724734 0.08703476
0002c0 f1 7d ba 3d 35 bd e7 bc 23 bf 6c 3d 8c 83 34 3d
       0.09106053 -0.028288463 0.05779947 0.044070765
0002d0 31 a9 df 3c 11 ed ec 3c 1c 73 c9 3d 01 8c 73 3d
       0.027302356 0.028921636 0.098364085 0.05945969
0002e0 ac 00 a4 bd fe 9a 6b bd a9 f8 37 3c d6 d9 45 3d
       -0.08007941 -0.05752086 0.011228719 0.048303448
0002f0 4e 88 ba 3d 8e 8b 93 3d e8 09 c5 3c 51 fb 43 bc
       0.09108029 0.07204352 0.024052575 -0.011961774
000300 ae 06 10 3d 83 fd cc 3d dc ec 43 bd e8 6c 4b 3d
       0.03516262 0.10009291 -0.04783331 0.049664408
000310 b1 e4 f5 3c 74 8d c7 3c 70 86 99 3c dd f6 df 3c
       0.030016275 0.024359442 0.018740863 0.027339393
000320 6c d3 c3 3d 79 72 23 3d 8b f8 e8 3d 9d b2 81 3d
       0.0956181 0.03990409 0.11375531 0.06332896
000330 ad 66 b9 bb 34 4e 33 3b 3e a0 4d bd c2 18 b5 3c
       -0.005657992 0.0027359845 -0.050201647 0.022106532
000340 ea b8 e8 3c 97 56 83 3d e2 80 48 3d 13 d9 6f bc
       0.028408486 0.06413 0.048951037 -0.014639157
000350 73 c1 f1 bc 22 a3 9c bc fe 7c 56 bd e7 37 89 bd
       -0.02951119 -0.019120757 -0.052365296 -0.06700116
000360 4e c5 1d bd 59 69 9a 3c 45 6c a3 bc 44 d5 85 bd
       -0.038518243 0.018849062 -0.019949088 -0.06534818
000370 bb e0 7e bd 1a 5f 03 bd b3 95 b5 bd 5b 33 b5 bd
       -0.06222604 -0.032073118 -0.088664435 -0.08847686
000380 28 7b a2 3d 55 cf 7c 3c fd 5c 5a bd 7c 50 22 3b
       0.079336464 0.015430291 -0.053311337 0.002476721
000390 c6 49 eb 3d 28 d7 f5 bd d8 9d 8b bd 96 55 92 3d
       0.114886805 -0.120039284 -0.06817216 0.071452305
0003a0 62 3f 8e bc 2e 78 cb 3a 72 25 1c 3d 09 f2 60 3d
       -0.017364208 0.0015523487 0.038121648 0.054918323
0003b0 db 89 29 3d b8 56 2f bd 53 12 3a 3d 40 96 f9 bb
       0.041391235 -0.04280731 0.04542763 -0.007616788
0003c0 83 e6 9a bc eb 01 fa 3c 8d a7 9d 3d 1b d3 58 bc
       -0.018908745 0.030518493 0.076979734 -0.013233925
0003d0 e2 90 ec 3d 90 86 8b 3d 71 4c b7 3c e2 d8 83 3d
       0.11551072 0.06812775 0.022375317 0.064378515
0003e0 e5 11 42 3a 29 7c 9e 3d fc 35 86 3c c3 e0 f5 bc
       0.0007403179 0.077385254 0.016383164 -0.030014401
0003f0 0b 57 22 3d f4 46 db 3c 47 1e 81 bd c8 a7 16 3b
       0.039633792 0.026767232 -0.06304603 0.002298819

lstm.weight_hh_l0 f4 [512, 128]
000000 29 83 90 3d 84 d0 9f 3c dc 14 9b bd b9 6c a5 3d
       0.07056267 0.019508608 -0.07572338 0.08077378
000010 42 2c 46 3d 54 00 b1 bc 45 0b 31 bd 6a 5a f9 bc
       0.04838205 -0.021606602 -0.043223638 -0.03043862
000020 9f 0f 84 bd 60 50 15 3c 40 90 43 bc b9 80 ac 3d
       -0.06448292 0.009113401 -0.011936247 0.084229894
000030 cf ad 8f 3d 37 c6 a4 3d 70 75 2e 3c b4 1e d4 3c
       0.07015573 0.08045619 0.0106481165 0.025893547
000040 6e d5 5b 3d 7e 77 25 3d f0 fa 87 bc cf d9 8b 3d
       0.05367034 0.04039716 -0.016599149 0.06828653
000050 c0 5c a8 ba 5c e8 80 bc 68 b6 66 3c 70 ee 88 3b
       -0.0012845024 -0.015735798 0.014081575 0.0041788146
000060 46 bd 3c 3d c0 c7 01 3c 1e cf 4e 3d f5 36 98 3d
       0.046078943 0.007921159 0.05049049 0.07432357
000070 63 38 9c 3d 11 ce 39 bd fd 22 a5 3d d6 11 40 3d
       0.076279424 -0.045362536 0.08063314 0.04689201
000080 d4 c3 82 bc 12 f6 aa bd d6 94 6e bd 70 54 9b bd
       -0.015962519 -0.083477154 -0.05824741 -0.075844646
000090 f0 7f 8f 3c 0f c4 b2 3d 87 be 79 bd 00 df 59 bb
       0.01751706 0.087288015 -0.060972717 -0.003324449
0000a0 be b9 33 3d 62 a1 35 3d 25 c9 aa 3d 15 db 82 3d
       0.04387831 0.04434336 0.083391465 0.06389443
0000b0 e2 03 64 bd 00 bd 14 3b 23 1b 9c 3d 40 05 7e 3c
       -0.055667765 0.002269566 0.076223634 0.015504181
0000c0 58 38 0a 3d 00 a9 c0 3c 9a fb 58 3d bb c8 b1 3d
       0.03374514 0.023518085 0.05297432 0.086808644
0000d0 5c 1c d1 3c b2 70 5c 3d 2a e5 54 3d d8 82 8d bd
       0.025526218 0.053818412 0.05197636 -0.06909722
0000e0 e4 24 a3 bc 20 c2 b8 3b 00 8f d0 3c fa e4 36 3d
       -0.019915052 0.005638376 0.025458813 0.044651963
0000f0 4c 72 39 bd 64 ec 97 bc 98 bf 0b bc b0 3b e2 3c
       -0.045275018 -0.018545337 -0.008529566 0.027616352
000100 c5 36 8a 3d e0 89 94 bc 1b e4 9c 3d 34 7b 95 bc
       0.06748728 -0.01813215 0.07660695 -0.018247224
000110 a8 8e cf bc 7f c2 9f 3d a8 e2 8c bd 50 69 7c 3c
       -0.025336578 0.07800769 -0.06879169 0.015405968
000120 8c 8b 97 bd f6 4c 28 3d 56 0a 3d 3d 8f ff 3c bd
       -0.07399663 0.04108902 0.046152435 -0.046142157
000130 f8 b6 32 3c 9a 5f 7f bd 31 bf 99 3d 10 7c f3 3c
       0.010907881 -0.062347032 0.0750717 0.029722244
000140 78 c7 3c bc 50 ac 1b bc da 19 65 3d 54 18 83 bd
       -0.011522166 -0.009501532 0.055932857 -0.064011246
000150 60 8f b8 bc 3c 3e a8 3c c6 e8 29 3d 90 0f 6c bd
       -0.022529304 0.020537488 0.041481756 -0.05763203
000160 74 56 68 bd f1 a3 96 3d c5 ed 8b 3d 62 8c 20 3d
       -0.056723073 0.07355488 0.0683246 0.03919638
000170 dc 4f b3 bd 7e 20 4d 3d 0a 70 67 3d f8 de a1 bc
       -0.08755466 0.050079815 0.056503333 -0.01975964
000180 40 a6 c3 3c 74 e4 b8 3c e0 07 a1 3c d2 00 5f 3d
       0.023882985 0.022569872 0.019657075 0.05444414
000190 3c 4d a7 bd d0 05 a7 bd eb bb 92 3d 59 e7 04 bd
       -0.08169028 -0.081554055 0.07164749 -0.032447193
0001a0 48 fc 72 bc 93 88 a9 3d b0 fc 4b bc 36 1d a4 bd
       -0.014830656 0.082780026 -0.012450382 -0.08013384
0001b0 b7 f0 ad 3d 2e 6c 65 bd d8 59 26 bc 86 ae b4 bd
       0.08493178 -0.05601137 -0.010153256 -0.0882235
0001c0 30 b5 66 3c a2 47 7c 3d d2 a1 55 3d 3a 1b 17 3d
       0.014081284 0.061591752 0.052156277 0.0368912
0001d0 ba cc 6e bd 80 9b 83 bb 28 90 17 3c e0 e5 2e bc
       -0.05830071 -0.00401634 0.009250678 -0.010674924
0001e0 e0 af a3 bd 00 37 6c bd b0 87 a4 3b ea 2d 81 bd
       -0.0799253 -0.05766964 0.005021058 -0.063075855
0001f0 80 d3 af bd e4 1e de 3c f8 49 92 bd 00 f5 eb ba
       -0.08585262 0.02711434 -0.07143015 -0.0018002093
000200 54 aa f2 3c 98 04 03 3c 00 ac bb bb ac 67 85 3c
       0.029622234 0.007996701 -0.005727291 0.016284786
000210 8c ca a8 bd fb 71 a6 3d a6 f8 72 3d 8a 65 2e 3d
       -0.08241758 0.08127209 0.05931916 0.042577304
000220 a0 da 3d bb 8b ca a7 3d e4 8c c2 bc bc 8b cf 3c
       -0.0028969422 0.08192929 -0.023748823 0.025335185
000230 4e 7b 65 bd ee 5b 59 3d 60 6f 89 3c 63 78 4e bd
       -0.056025796 0.053066187 0.01677674 -0.05040778
000240 ff 82 8c bd 46 39 22 3d 35 8c 20 bd b8 91 a7 bc
       -0.06860923 0.0396054 -0.03919621 -0.020455226
000250 b5 15 10 bd 9b 70 ac 3d 10 5d 39 bd 50 c5 86 3b
       -0.03517695 0.08419915 -0.045254767 0.004112877
000260 3c 99 cc bc ac ad cc 3c 2e e6 54 3d d0 f8 42 bd
       -0.024975412 0.024985157 0.05197733 -0.047600567
000270 99 51 81 3d 64 07 d1 3c 2c a8 e0 bc a8 55 80 bd
       0.06314392 0.02551622 -0.02742394 -0.06266338
000280 18 41 93 bd 03 d3 81 bd 44 08 d6 bc 32 75 b3 bd
       -0.0719015 -0.063390754 -0.026126988 -0.087625876
000290 16 df 74 3d 5e 9a 46 3d 80 19 9b ba b0 b5 95 bc
       0.059783064 0.04848706 -0.0011833161 -0.018275112
0002a0 16 27 81 bd 52 38 4b 3d 04 03 39 bd d6 d0 05 3d
       -0.06306283 0.049614258 -0.04516889 0.032669865
0002b0 3f 41 45 bd 00 ef a4 3c 19 dd 8d bd 60 9c fc bb
       -0.048157927 0.020133495 -0.06926937 -0.007709071
0002c0 00 39 5e 3b 38 39 8a bd 62 08 59 bd 19 1c 41 bd
       0.0033908486 -0.06749195 -0.05298651 -0.047145937
0002d0 a6 ca 3d 3d f0 f4 dc 3b f0 19 fe bc 13 ec 87 3d
       0.04633584 0.006743066 -0.031018227 0.066368245
0002e0 1e 74 a4 bd b1 78 3a bd ab 2d 2c bd 4b a9 7b bd
       -0.0802996 -0.045525257 -0.04203574 -0.061440747
0002f0 c6 f4 4e 3d 7e c3 92 bd 02 78 24 3d e8 7a 48 bc
       0.050526403 -0.071661934 0.04015351 -0.012236334
000300 0d 11 8a 3d 4c 32 b4 3c 62 bd a7 bd ce 22 7f 3d
       0.067415334 0.02199664 -0.08190419 0.06228905
000310 ae 33 31 3d 7a b5 99 bd f0 41 ad bc b8 13 45 bc
       0.043262176 -0.07505317 -0.021149606 -0.012028627
000320 01 96 a0 bd 4a 42 ab bd c0 6c ef bb 80 68 80 bd
       -0.07841111 -0.08362253 -0.007306665 -0.06269932
000330 76 a6 96 bd 31 e4 b1 3d 83 c1 8c 3d 2d e0 74 bd
       -0.07355969 0.08686102 0.06872847 -0.059784103
000340 ad f6 89 3d 40 2d 7f bc 9c ed fc 3c ac f5 98 bd
       0.06736503 -0.015574753 0.03087502 -0.07468733
000350 5a cf 00 3d a9 e8 00 bd 88 6a 51 bc df 0c 91 bd
       0.031447746 -0.031471882 -0.012781747 -0.07082533
000360 2c 37 d8 3c 7f 89 5b bd ba 51 19 3d ae ae 8a bd
       0.026393496 -0.053597923 0.037431456 -0.06771599
000370 de 1c 29 3d 30 77 f9 bc ca 1c 52 3d 06 93 23 3d
       0.041287296 -0.03045234 0.051296987 0.039935134
000380 d8 20 ac bd 90 8e 34 bc 64 c6 e7 3c 24 10 9d bc
       -0.08404702 -0.011020318 0.028292842 -0.019172736
000390 ee ec e2 bc ea 0e 45 3d 46 37 af bd f2 02 ff bc
       -0.027700868 0.048109926 -0.085554644 -0.031129334
0003a0 f9 a0 83 3d 1d f5 92 3d 33 e1 a8 bd 6b 42 a7 3d
       0.064271875 0.07175658 -0.08246078 0.08166965
0003b0 a2 c5 a7 bd 2e 9f 9c bd 27 e5 97 3d f0 55 fc 3b
       -0.08191992 -0.076475486 0.07416754 0.0077006742
0003c0 1a c2 5b 3d 3c d9 7f bd b6 66 61 3d 08 4d 69 bd
       0.053651907 -0.06246303 0.055029593 -0.05695823
0003d0 fe 4e 10 3d 80 95 80 3c 96 c5 61 3d 26 5c 6a 3d
       0.035231583 0.015696287 0.055120073 0.057216786
0003e0 68 1a d6 bc d0 13 dd 3c 16 bd 7e bd f8 ac 12 bc
       -0.026135638 0.026986986 -0.062192045 -0.008952372
0003f0 ac d9 e4 bc d6 d5 95 bd 0d 53 99 3d 48 9c 99 3c
       -0.027935825 -0.073161766 0.07486544 0.018751279

lstm.bias_ih_l0 f4 [512]
000000 6a 30 0a 3d 04 37 2a bd ad df 6e bb 89 fd 2a bc
       0.033737577 -0.041556373 -0.003644924 -0.010436424
000010 e0 3e 2e bd 39 e1 49 3d 74 fb 41 bd 0e c6 99 bd
       -0.04254043 0.049287055 -0.047358945 -0.07508479
000020 45 3c 75 bb 2d 75 7c 3d 17 7a 53 bd e3 e6 e0 3c
       -0.0037419957 0.061635185 -0.051630106 0.027453845
000030 7f 77 9e bc b3 eb 98 bd d9 44 2b 3c 97 55 56 3d
       -0.01934409 -0.07466831 0.010453426 0.05232772
000040 ac 6f d7 bc 83 70 f6 3b e8 c0 8b 3d f2 a7 ca 3c
       -0.026298366 0.0075207367 0.06823903 0.024738286
000050 e0 73 4b 3b ab 16 26 3c 82 a2 cc 3c 62 60 8c 3d
       0.0031044409 0.01013724 0.024979834 0.06854321
000060 8d 14 72 3d ed c8 ab bc 38 ce 19 bd 67 1e 39 bd
       0.05910163 -0.020969832 -0.03755018 -0.04519501
000070 4d f1 4f 3c 20 a9 8b bd 51 10 21 bc 0a d0 10 bd
       0.012691808 -0.068193674 -0.00983055 -0.03535465
000080 5d 80 39 bd ac 1d 9b bd 08 f0 dc 3c e5 e5 aa 3d
       -0.045288432 -0.07574019 0.026969925 0.0834463
000090 7c fd 45 3c 11 5f 20 3d cb 12 90 bd 6e 5d 8d bd
       0.012084361 0.039153162 -0.070348345 -0.06902586
0000a0 77 15 37 bd ac 8c 02 3c a3 7c 0e bd 52 28 e6 3c
       -0.044698205 0.007968109 -0.03478683 0.028095398
0000b0 20 8d 91 3d e1 29 1f bc a9 c0 4d 3d b2 a7 c2 bb
       0.071069956 -0.009714575 0.050232563 -0.005940401
0000c0 2b 65 72 3c ed 80 eb 3c f5 27 a3 3d 05 58 2b bd
       0.014794628 0.028748 0.079666056 -0.04183199
0000d0 b4 4c f5 3c c3 6c 8e 3d 7d 06 09 bd 38 82 99 bd
       0.029943801 0.069543384 -0.033453453 -0.074955404
0000e0 31 a3 b6 3d 57 8a ac bb b8 5b 54 3a 0f 1b 1c bc
       0.08917845 -0.005265515 0.00081008254 -0.009527936
0000f0 29 37 54 3d 22 61 ac bd ed 0f b9 bc 43 c0 27 ba
       0.051810417 -0.08416964 -0.022590602 -0.00063991937
000100 84 39 7c 3d d4 c6 05 3d df a8 c1 bc 92 4b 26 bd
       0.06157829 0.03266032 -0.023640094 -0.040599413
000110 67 28 04 bd d9 3e b1 3a 92 e2 30 3d 44 ed a2 bd
       -0.032265093 0.0013522758 0.043184824 -0.07955411
000120 59 cb 43 3d 22 90 93 3b 9c ee 3f 3d 17 fc 87 3d
       0.04780135 0.004503266 0.046858415 0.06639879
000130 e8 fd 8b bc 40 6c 68 3c a1 f5 2d bd 4e e2 80 3d
       -0.017088845 0.014185965 -0.042470578 0.06293164
000140 75 2e 85 3c 8d d7 d8 bc fb c7 8d bd 26 b8 a8 bd
       0.016257504 -0.02646997 -0.06922909 -0.082382485
000150 a7 75 a3 3d 2e 82 89 3d 3f a8 85 bd fa 75 b1 bc
       0.07981425 0.06714283 -0.06526231 -0.0216627
000160 09 a2 b1 3c 82 37 66 bd 9d b5 95 3c 85 d1 c1 bc
       0.02168371 -0.05620528 0.018275077 -0.023659477
000170 b1 7c 0c bd 0a 87 28 bd 8d 37 f3 bc 3c 88 92 bc
       -0.034298602 -0.04114441 -0.029689575 -0.017887227
000180 63 9d 6a 3d 9b 3d 50 bd 33 fe 45 3d cf 62 28 3d
       0.057279002 -0.05084 0.048338126 0.041109856
000190 21 77 b2 3d bb 30 40 bd 74 de d4 3c 6a 22 7b bd
       0.08714128 -0.046921473 0.02598498 -0.061312117
0001a0 74 da 8e bc 98 e3 79 bc 32 44 1c 3d e9 32 bc 3d
       -0.017438151 -0.0152520165 0.038150974 0.09189398
0001b0 aa 04 57 3d 69 aa a3 bd ce 1c 5e 3d 5e 00 a1 3c
       0.052494682 -0.079914875 0.05422669 0.019653495
0001c0 22 25 4d 3d 82 91 ba 3b eb f6 2c bd fa 35 9c bd
       0.05008424 0.0056936154 -0.042227667 -0.07627483
0001d0 c7 88 3e bc 11 8c 10 3c 14 b8 9a b9 81 61 be 3c
       -0.01162929 0.008822457 -0.00029510318 0.023239853
0001e0 6e 4d 3d 3c e2 50 e8 bc 99 8b a8 bc 97 c0 81 3d
       0.011554105 -0.02835888 -0.020574378 0.06335562
0001f0 67 f6 f2 bc 09 82 9f bd ac 60 39 bd 80 e2 08 bd
       -0.02965851 -0.07788474 -0.04525821 -0.033419132
000200 b8 09 4f bc 8f 87 9a bd 26 10 4f bd 30 8b a0 3b
       -0.0126365945 -0.07545387 -0.05055251 0.004899405
000210 91 6d 95 3d 85 b6 1a bd e0 fa 82 bd f8 54 d6 3c
       0.07296289 -0.03777172 -0.06395507 0.026163563
000220 74 cf b1 bd 7b 75 ae 3d d0 65 f2 bb 30 0e c3 bb
       -0.08682147 0.08518501 -0.007397391 -0.005952619
000230 50 30 f7 3b f2 9a 54 3d ec 7c ea 3c d7 71 03 bd
       0.007543601 0.05190558 0.02862402 -0.032090988
000240 bd 61 ae bd 70 79 44 3c b2 c8 43 3d 02 48 68 3d
       -0.08514736 0.011991844 0.04779882 0.056709297
000250 e4 8a 8a 3c e9 9d 9e 3d d4 df 91 bc 48 3e 9d 3c
       0.016911931 0.07744963 -0.017806925 0.019194737
000260 40 d1 f7 3b 70 44 f8 bb 29 d2 a8 bd 80 9e 24 3b
       0.0075627863 -0.0075765178 -0.0824321 0.0025118887
000270 d8 dc 60 bc 89 f5 94 3d 75 e9 9c 3d 3c a7 1b bd
       -0.013724528 0.072733946 0.07661716 -0.038001284
000280 44 2d cc 3c 1c a2 e7 bc 6e 4b 43 3d ac a8 93 3c
       0.024923928 -0.028275542 0.047679357 0.018024765
000290 ce c5 54 3d 86 41 d5 bc 40 f8 b4 bd 73 ca 93 3d
       0.051946454 -0.02603222 -0.088364124 0.072163485
0002a0 9d c3 a1 3d 2c 8b 82 bc 80 17 0f bb 60 a4 48 3b
       0.078986384 -0.015935503 -0.0021834075 0.0030615553
0002b0 68 76 2d 3c 3f 06 6d bd 07 2b 91 3d 40 c9 53 bb
       0.010587312 -0.057867285 0.07088285 -0.0032316
0002c0 31 21 11 bd 88 2a 12 3d 2d 52 66 bd 48 41 ae bc
       -0.035432044 0.035685092 -0.056230713 -0.021271363
0002d0 31 63 8a 3d ee 49 26 3d 80 b0 5c 3c ab 2e 20 bd
       0.067572005 0.04059785 0.013469815 -0.039107006
0002e0 72 c9 42 3d 70 cc c8 3c 22 a8 14 3d ca 18 38 3d
       0.047555394 0.024511546 0.036293156 0.044945516
0002f0 40 98 f8 3c 7e 9d 41 3d 68 80 22 bc 04 8d 81 bc
       0.030346036 0.047269337 -0.00991831 -0.015814312
000300 39 be b1 bd 49 50 81 3d 9e 13 3f 3d 71 18 93 3d
       -0.0867886 0.06314141 0.046649568 0.07182396
000310 e0 35 42 3c cd 53 31 bd 47 24 88 bd 9e 55 37 3d
       0.011853665 -0.04329281 -0.06647544 0.044759385
000320 13 16 88 bd 49 cc aa bd cf 73 57 bd 97 12 29 bd
       -0.06644835 -0.083397456 -0.052600678 -0.041277494
000330 2a 28 51 3d 63 90 98 3d 37 ce 9a 3d 58 c9 a6 bc
       0.051063694 0.074494146 0.075588636 -0.02035968
000340 db 60 6f bd 00 0a cd bc 08 b3 e2 3c 18 86 71 bc
       -0.058441978 -0.025029182 0.02767326 -0.014741443
000350 f9 08 a7 3d 20 a3 11 bb 57 60 66 bd c2 cd 60 3d
       0.08156008 -0.0022222474 -0.05624422 0.054883726
000360 58 6b 90 bd 66 40 b0 bd 14 8a 90 bd b0 19 83 3b
       -0.07051724 -0.08606033 -0.07057586 0.004000865
000370 78 0a 52 3c fd d1 70 bd 88 94 34 bd 7b 2f a1 3d
       0.012819879 -0.05879401 -0.044086963 0.07870384
000380 f2 61 1e bd ee b0 21 3d 52 15 69 3d e4 68 f0 bc
       -0.038667627 0.039475374 0.0569051 -0.02934689
000390 00 52 63 3a 50 89 db bc 60 7c c1 bb 3a 33 4e 3d
       0.0008671582 -0.026798874 -0.0059047192 0.050341822
0003a0 72 f7 d6 bc 30 02 ab bb 20 b5 b6 3c 28 5b a2 bc
       -0.026241038 -0.0052187666 0.022303164 -0.019818857
0003b0 d5 7d a2 3d 92 51 7f bd 0c 8a 10 bd 27 8b 86 3d
       0.07934157 -0.06233365 -0.0352879 0.0656951
0003c0 92 35 3d 3d 76 32 4d 3d cf 1b 9c 3d b0 1e 7a 3c
       0.046193667 0.05009695 0.076224916 0.0152661055
0003d0 dc 39 bd bc 29 fe ad 3d ac 41 09 3d 00 9e 24 3a
       -0.023098879 0.08495743 0.033509895 0.00062796474
0003e0 6d c9 a5 bd 4e 8d 35 3d 0f a2 9c 3d f6 f8 5a 3d
       -0.080950595 0.04432421 0.07648098 0.053460084
0003f0 a0 cd ff bc b8 e0 83 3c d8 ca 6d bd 2b 84 86 3d
       -0.03122598 0.016098365 -0.058054775 0.06568178

lstm.bias_hh_l0 f4 [512]
000000 2a ad 64 3d 8e 43 99 3c 41 ab 59 3d b6 7c 9d bd
       0.055829205 0.01870897 0.053141836 -0.07689802
000010 44 f0 4e bd 20 7a b0 3d 8c d6 24 bd 47 4a 8c 3c
       -0.050522104 0.086170435 -0.04024367 0.017125262
000020 52 89 b2 bd 8f e9 2e bd 45 30 05 3d 9b e5 01 3d
       -0.08717598 -0.042703208 0.032516737 0.03171311
000030 26 33 4d bd f6 34 b1 3d eb 84 2b bd 87 c1 fd 3c
       -0.050097607 0.086526796 -0.041874807 0.03097607
000040 a8 6d 0c bc ef b8 95 3b 33 73 da 3c f4 7c 9b 3c
       -0.008571066 0.004569165 0.02666626 0.01898048
000050 de e8 2e 3c bd 99 78 3c d8 af 92 3d 74 41 41 3d
       0.010675637 0.015173373 0.07162446 0.04718156
000060 fe 7b fa bc 76 76 98 bd 60 6b 81 bd 41 3a 8a 3c
       -0.030576702 -0.0744447 -0.06319308 0.01687348
000070 92 b5 0a 3d 89 1c af 3d 51 7f ab 3d 08 cc 1d bd
       0.033864565 0.085503645 0.08373893 -0.038524657
000080 c8 66 c9 3c 99 c0 58 3d b6 35 9d bd 9a 39 aa bc
       0.024585143 0.05291805 -0.0767626 -0.02077942
000090 01 d5 3c 3d e9 4e 87 bd a9 02 a2 3d 37 46 92 3d
       0.046101574 -0.06606848 0.07910664 0.07142299
0000a0 6f 16 8d bd 5a 0d 24 bd 50 c9 13 3c e8 df 44 3d
       -0.068890445 -0.040051796 0.009020165 0.048065096
0000b0 fa 47 96 bb 54 3f bb bc d7 82 c9 3b 0a ac 57 bc
       -0.004586217 -0.022857346 0.0061496305 -0.013163576
0000c0 6e 0b 16 3d 4f 9c 74 3d 75 02 c1 3c 7d bb a3 3c
       0.036631994 0.05971938 0.023560742 0.019986862
0000d0 f0 97 8c 3d 63 50 93 bc 30 ca dc 3c ab 41 8a bc
       0.06864917 -0.017982667 0.02695188 -0.016877016
0000e0 b2 9f bb 3b a3 9f a4 3c ed 5f a1 3d e2 5a bc 3d
       0.0057258243 0.020095652 0.078796245 0.09197022
0000f0 a4 e8 de bc 06 5d b1 bd a5 31 17 3d 19 49 db 3c
       -0.027210541 -0.08660321 0.03691258 0.026768254
000100 c8 57 19 bc 42 c0 25 3c 85 9b db 3c 59 8c 2d bb
       -0.009359308 0.010116639 0.026807556 -0.0026481359
000110 0c 44 5e 3c 70 7e bd 3d fe f9 76 3d 78 f3 8d bd
       0.013566028 0.09252632 0.060297005 -0.069312036
000120 27 ce af bc 6a 23 a2 3b f1 a0 9d bb c5 e8 66 3d
       -0.021460606 0.0049480693 -0.0048104455 0.05637433
000130 cc a9 b7 3d 29 13 b5 bc b0 24 f2 bc f4 9a 8f 3d
       0.08967933 -0.022103863 -0.02955851 0.07011977
000140 00 67 9f bd 2d 64 ae bc cd 53 a1 bd 7c 3a c1 bc
       -0.077833176 -0.021288002 -0.07877312 -0.023587458
000150 c0 7f 1f 3d 6f a3 74 bc 92 15 45 3d 31 a4 33 bd
       0.03894019 -0.014931544 0.048116274 -0.043857757
000160 6e 12 a0 3d 0b 16 05 bd 7d 5b 4b 3a 06 19 a7 3d
       0.07816015 -0.032491725 0.0007757468 0.0815907
000170 29 bd 87 ba 9e 5e b5 3d 64 62 7b bc a9 e2 16 bd
       -0.0010356057 0.088559374 -0.015343282 -0.036837254
000180 03 01 02 bd 4d af 99 bd 00 2b d8 bc 15 b2 63 bd
       -0.031739246 -0.07504139 -0.026387691 -0.055589754
000190 9d a4 a5 bd 89 55 0a 3d 60 93 ab bc 2b 2d a7 3d
       -0.08088038 0.03377298 -0.020944297 0.08162912
0001a0 f0 25 11 bc 66 81 40 3d 54 00 88 bd 0e c3 b0 bc
       -0.008859143 0.046998404 -0.066406876 -0.021577384
0001b0 32 7c 7f bd 66 29 16 bb 40 91 af bd 0e e7 89 3d
       -0.0623743 -0.002291286 -0.08572626 0.06733523
0001c0 31 78 8d bc f3 12 b8 3d b9 92 74 3a 44 db f7 3b
       -0.017269226 0.08987989 0.00093297247 0.0075639803
0001d0 20 83 8b 3d 41 9f 9e 3d 97 43 0d bd 84 5f 06 bc
       0.068121195 0.07745219 -0.034488287 -0.008201484
0001e0 2d 79 af bc c4 4f 51 3d 7d 6f cd bc ad 1b 38 3d
       -0.021420086 0.05110146 -0.025077576 0.04494827
0001f0 5c bb 99 3d 0c 54 46 3b 78 9d 60 3d 6d cc b3 bb
       0.07506439 0.0030262498 0.054837674 -0.005487016
000200 e8 97 dc 3c c4 9a a7 bd 98 4b 02 3d c0 ae 4f bd
       0.026927903 -0.08183816 0.031810373 -0.050703764
000210 fa f1 58 3d e7 6c af bd f0 2c 38 3c 90 d7 8b bc
       0.05296514 -0.08565693 0.011241183 -0.017070562
000220 33 36 12 bd 34 b1 8f bd b0 ba f5 3b 1e 10 54 3d
       -0.03569622 -0.07016221 0.0074990615 0.051773183
000230 4f a3 86 3d b8 e5 22 bc b0 9f e9 bc 3e e2 42 3d
       0.065741174 -0.0099424645 -0.028518528 0.047579043
000240 64 1b bf bc 25 92 8c 3d df 9c 60 bd ce 6c 3a 3d
       -0.02332849 0.06863812 -0.054837104 0.04551392
000250 60 26 58 bd 0e ce 5b 3d 84 48 e1 3c 0c 0e a0 bd
       -0.052770972 0.053663306 0.027500398 -0.07815179
000260 38 95 e3 bc 76 57 a4 bd f5 27 80 3d 40 7d 11 bb
       -0.027781114 -0.08024494 0.06257621 -0.00221999
000270 34 fd 0a bd ca 07 33 3d a5 08 9f 3d 80 45 a3 bc
       -0.03393288 0.0437086 0.07765321 -0.019930601
000280 a0 74 6a bc 2d 3c 3a bd 22 23 0b bd f6 45 42 3d
       -0.014310032 -0.045467544 -0.033969052 0.04743
000290 2c 6c 7d bd 6e c6 1f 3d ee 82 46 3d 01 8e 05 bd
       -0.06187074 0.039007597 0.048464708 -0.03260613
0002a0 75 ba 84 3d b7 5e 89 3d b9 5b 9b 3d 78 f8 e5 bc
       0.06480876 0.067075185 0.07585854 -0.02807258
0002b0 3f f2 aa bd 5c 0a 8e bd 08 5c 62 bc e0 35 fc 3c
       -0.08346986 -0.0693557 -0.013815887 0.030787408
0002c0 c0 45 7e bb 60 fe b1 3c 49 2d 8c 3d c0 56 1e 3c
       -0.0038798898 0.02172774 0.06844575 0.0096642375
0002d0 9a f0 1c bd 40 26 cb bc c8 c7 33 bc 0a 29 38 3d
       -0.038315393 -0.024798512 -0.0109729245 0.044961013
0002e0 3c 12 c5 3c 78 99 1b bd 60 1f 15 3c b8 71 95 bc
       0.024056546 -0.037988156 0.009101719 -0.018242702
0002f0 c9 ef 84 3d 0c 6e 87 3c 4a c1 97 bd 72 b7 51 bd
       0.06491048 0.016531967 -0.07409914 -0.051200338
000300 cc 42 de 3c 3c 3c a9 bc 91 58 9c 3d 30 9b 11 bd
       0.02713146 -0.020658605 0.0763408 -0.03554839
000310 ec ba 91 bd be 2a 99 bd 9a f1 12 3d 60 c2 77 bb
       -0.07115731 -0.074788556 0.03587494 -0.0037805066
000320 d0 c1 f6 bb cf 2d 2c bd 02 9c 59 3d da 78 49 3d
       -0.0075304285 -0.042035874 0.053127296 0.04918752
000330 9a 0a 63 3d b6 65 29 bd 62 46 e6 bc 5a 8a d6 bc
       0.055430032 -0.041356765 -0.028109733 -0.026189018
000340 58 56 ba bc 4d 66 8c 3d c7 ab 84 3d 50 b4 f5 3b
       -0.02274625 0.0685545 0.064780764 0.0074983016
000350 66 94 16 3d c4 ad 0a 3d be df 54 3d f0 ab b7 bb
       0.036762618 0.033857122 0.05197119 -0.0056052133
000360 d0 e4 44 3c e4 5a 60 bd d1 c9 91 3d 10 3a ad 3c
       0.012017444 -0.05477418 0.071185715 0.02114585
000370 f1 18 b4 3d fb 24 b3 3d e0 42 24 bc 1c 93 80 bd
       0.0879382 0.08747288 -0.01002571 -0.06278059
000380 0b d2 85 3d 00 2d 28 3c e0 55 95 3b 55 15 96 3d
       0.06534203 0.010264635 0.0045573562 0.073282875
000390 cf 42 9a 3d 5f af aa 3d 43 65 89 3d e8 f2 32 bd
       0.07532274 0.08334231 0.06708767 -0.043688685
0003a0 cc db c1 bc 31 3d 82 3d f0 9c 4c bc 70 4f 17 3c
       -0.023664378 0.063593276 -0.012488589 0.009235248
0003b0 76 da 41 3d 08 69 01 3d 47 a4 07 bd 20 b2 38 bb
       0.04732748 0.031594306 -0.03311565 -0.0028182343
0003c0 b0 fa 92 bd dd 07 96 bd f8 df 10 bc 86 16 5a 3d
       -0.07176721 -0.073257186 -0.008842461 0.053244136
0003d0 95 d1 3d bd 9b a0 a0 3d 84 22 96 bd a5 d9 86 3d
       -0.04634245 0.07843133 -0.07330802 0.06584481
0003e0 80 18 0d ba 3c c1 2b bd b0 b6 ee bc 98 74 21 3c
       -0.0005382374 -0.04193233 -0.029139847 0.009854458
0003f0 34 de e8 3c a8 fa d9 bc f2 13 50 bd a2 21 4d 3d
       0.028426267 -0.02660878 -0.05080027 0.050080903

fc.weight f4 [10, 128]
000000 cf d6 41 3d 90 11 d2 3d cc 4d 10 bb a3 e1 48 3d
       0.047323998 0.10257256 -0.0022019027 0.04904331
000010 df b6 ad bb 35 28 af bd 24 a5 a6 3d 93 c0 99 3d
       -0.005301341 -0.08552591 0.08136967 0.07507434
000020 4e 63 b5 3d 81 42 c9 3c 0d 2c 80 bd c2 cb 80 3c
       0.088568315 0.024567844 -0.06258402 0.01572216
000030 82 bb 83 3d 79 16 c8 bd 9e 7b 22 bc df 2f 66 3b
       0.06432249 -0.09769911 -0.009917168 0.0035123748
000040 15 1b 3b 3c aa 04 ae 3d 38 22 d2 bd 56 7a 14 3c
       0.011420031 0.08496983 -0.10260433 0.00906237
000050 68 62 35 3d cc 4f 2d 3d d0 c4 bc 3b a0 55 60 bd
       0.0442833 0.04231243 0.0057607666 -0.05476916
000060 e4 49 4a bc 32 0b 57 3e cc 04 06 3d af 02 9c bc
       -0.012346718 0.21000364 0.03271942 -0.019044248
000070 b7 f2 29 3e d8 12 dc bd 39 f8 86 3d 15 8c 0e bc
       0.16596495 -0.10745782 0.065903135 -0.00870039
000080 1f e3 c9 bd a3 3b 3a bd 33 b9 22 bd 23 dd af ba
       -0.09857773 -0.04546703 -0.0397274 -0.0013417344
000090 6c d1 13 bd c5 d2 d5 bd 6b 86 01 be 0f 5e 49 bd
       -0.036088392 -0.10440592 -0.12648933 -0.049161967
0000a0 13 2d ba 3d d8 33 fd bd 6e 0e 7e 3d 09 cd c3 3b
       0.090906285 -0.12363404 0.06202548 0.00597537
0000b0 56 76 00 3d 4d 04 1c be 41 25 c8 3d 81 b9 b8 3d
       0.031362854 -0.15236016 0.097727306 0.09019757
0000c0 3d d3 1a bd a5 ec a9 bd 20 81 f5 bd 77 54 db bc
       -0.03779911 -0.082970895 -0.11987519 -0.026773674
0000d0 7b f8 8c 3a 5d af a9 3d a0 d5 d9 bc 13 42 ae 3d
       0.0010755205 0.08285401 -0.026591122 0.085086964
0000e0 79 34 41 3e f6 0e 1e 3c 33 97 36 3d ed 0e 8c bb
       0.18867673 0.009647122 0.04457779 -0.00427424
0000f0 3e d2 4b 3d e8 f3 ef bd 47 fe f8 bc 62 d1 c4 3d
       0.04976105 -0.11716443 -0.030394686 0.09610249
000100 0d bb 3f bd 77 7d 91 bc 1d 4c de bd 93 93 0f bc
       -0.046809245 -0.017760022 -0.10854361 -0.008763212
000110 a2 fc 1c bd f5 2a cc bd 63 eb 29 3e 09 9e 0c 3e
       -0.038326867 -0.09969131 0.16593699 0.1373216
000120 04 d1 fa bd 6b 13 9d 3c 6b 0f 05 be 33 ba af bc
       -0.12246898 0.019174298 -0.12994163 -0.021451091
000130 7e 02 27 bd 6e b0 e8 3d ee 12 e5 bd 53 0b d4 3d
       -0.04077386 0.11361776 -0.11185251 0.103537224
000140 59 b8 1d 3d d9 90 d3 bd d4 c7 e3 3c 49 6a 27 bd
       0.038505886 -0.10330362 0.027805246 -0.040872846
000150 1a 9b 9c 3d 61 8f 50 3c 7c 6c 06 3d d2 11 9d bb
       0.07646771 0.012729497 0.032818303 -0.004793384
000160 c1 69 49 bd 80 c3 82 3d 63 79 97 3d 7c 16 6a 3d
       -0.04917312 0.06384945 0.073961996 0.05715035
000170 e5 14 44 bd c0 ed c5 bd de 3f 40 3e 9f c4 2c be
       -0.04787149 -0.09664488 0.18774363 -0.1687188
000180 50 31 dd bc d2 e1 23 3e b4 a1 2e 3d e7 bd a7 bd
       -0.027001053 0.16004112 0.04263468 -0.08190518
000190 80 f8 e8 3b b8 39 17 be 13 53 7b 3d e9 cc 0c be
       0.0071097016 -0.14768112 0.061358523 -0.13750042
0001a0 43 11 cb 3b 0a 66 82 bd d5 62 99 3d b9 b1 47 be
       0.006197126 -0.06367119 0.07489554 -0.1950139
0001b0 6b f6 74 3c 93 de e8 bd 48 80 82 bc 58 b8 1f 3d
       0.014951329 -0.11370578 -0.01593031 0.038994163
0001c0 b1 24 80 bd ba e7 90 ba 69 56 92 3c c0 82 02 bd
       -0.06256998 -0.0011055388 0.01786347 -0.031862974
0001d0 ce ff 87 bb 5c ed 77 bc 31 06 b7 3d ce 19 bc bd
       -0.0041503673 -0.0151322745 0.08936728 -0.09184609
0001e0 f3 46 ae 3d 7e a4 18 be ba 52 21 3d e1 93 a2 bd
       0.08509626 -0.14906499 0.039385535 -0.07938362
0001f0 10 1d ac bd 6e ce 1b be e7 ce 42 3b 49 40 b9 bd
       -0.08403981 -0.15215465 0.0029725374 -0.090454645
000200 ad 6d c5 3c fb 5d 41 3d 01 dc 04 3d 86 b5 95 3b
       0.024100149 0.047208767 0.032436375 0.0045687584
000210 ad 75 ba 3c 12 7e c6 bd d5 88 56 bb 93 fc 33 bd
       0.02276119 -0.09692015 -0.0032735367 -0.043942045
000220 4e 48 01 bd 3c 28 07 3d 42 8a a4 3c 5c fb d0 3d
       -0.031563096 0.032997355 0.020085458 0.10204193
000230 d6 0d da bc ec d1 02 be a9 4d c6 3c 14 5e 95 bb
       -0.026617926 -0.12775391 0.024206953 -0.004558334
000240 32 97 47 bd a6 d7 be 3a c5 71 1e 3c 78 db b6 3d
       -0.048728175 0.0014560118 0.009670679 0.08928579
000250 00 a5 bd 3a 5e d3 00 3d fa bc 2c 3d bb 9b 40 be
       0.001446873 0.031451575 0.04217241 -0.18809406
000260 44 40 08 bc 67 cd 3c 3e e1 98 e2 bd 6a 81 da 3d
       -0.008316103 0.1843773 -0.110643156 0.10669215
000270 61 b0 50 3e d6 cb 8d bd d5 f0 b5 bd 29 6b 45 3d
       0.20379783 -0.06923644 -0.08883826 0.0481979
000280 7a 69 f7 bd 66 c1 a9 bc d2 34 3c bb 4d 38 58 bd
       -0.12080665 -0.020722102 -0.0028718007 -0.052788068
000290 8a e0 78 3d 6b 9a 5b bd a3 ad 2c bd d7 c4 26 3d
       0.060761012 -0.05361406 -0.04215778 0.040715065
0002a0 c7 56 44 3d 36 1c ce 39 8e 41 22 bc 31 8e f5 bc
       0.04793432 0.000393124 -0.009903325 -0.029975029
0002b0 3f f3 ac ba db d7 79 bc 37 30 3e 3c 8f 36 f5 bc
       -0.0013195052 -0.015249218 0.011608175 -0.029933242
0002c0 f2 01 0a 3d d0 ae e6 bd a3 08 35 be 1e 9a ba 3d
       0.03369326 -0.112638116 -0.17679076 0.09111427
0002d0 f3 b9 4c 3b 7d 43 bf 3d 74 8f c6 bc 8e f2 de bb
       0.0031238764 0.09339044 -0.024238326 -0.006803817
0002e0 f2 01 01 3e d1 34 8d bd 47 c1 83 3d 30 e0 39 3d
       0.12598398 -0.068948396 0.06433349 0.045379817
0002f0 2b ab 79 bd 9d a8 b3 bc 36 83 81 bc ff b0 17 3e
       -0.060954254 -0.021930987 -0.015809637 0.14813612
000300 ec 45 14 bd ca 21 e9 bd 56 81 a3 bd f1 30 97 3d
       -0.036199495 -0.11383398 -0.07983653 0.07382382
000310 62 22 a1 bd e9 1d 84 bd 84 cb 15 3d f4 3d 1a 3e
       -0.07867886 -0.064510174 0.03657104 0.15062696
000320 5d 83 f0 bc a0 4e 19 3d a1 a7 03 bd 51 c3 e2 3c
       -0.029359514 0.0374285 -0.032142285 0.027681025
000330 28 70 1d 3d 32 a5 1d 3e c8 1d d9 bd a2 b9 f8 3c
       0.03843704 0.15395048 -0.106013834 0.030361954
000340 31 cb 17 3d 96 3f 0f be ac 71 3c 3a 31 44 61 3c
       0.037059013 -0.139891 0.0007188569 0.013749168
000350 42 c2 27 3d c2 b5 16 3c ac 17 63 bd 5c a5 4a bc
       0.040956743 0.009198608 -0.055442497 -0.012368526
000360 dd 0a ce bc 2b bc 09 3e 1b df 11 3d 59 14 dd bc
       -0.025151664 0.13450687 0.03561316 -0.026987242
000370 f4 05 ef bb d2 d8 c9 bd 10 7a 51 3e bf 75 51 be
       -0.007294411 -0.09855808 0.2045672 -0.20455073
000380 40 e9 78 bd b7 16 34 3d 00 06 55 b9 93 92 ff bc
       -0.06076932 0.043966975 -0.00020315498 -0.031197822
000390 b5 47 0c bd aa 3e 40 be 3f a7 69 bd 8d c0 96 bc
       -0.034248073 -0.18773904 -0.057044264 -0.018402362
0003a0 3a a6 69 3d 15 c8 ce bc 79 8f ab bd 44 0f 7f bd
       0.05704329 -0.02524189 -0.083769746 -0.062270418
0003b0 7c 4e 32 bb b1 85 7e bd 6d 55 15 be c6 a3 a1 3c
       -0.0027207425 -0.062139217 -0.14583369 0.019731414
0003c0 b2 bb a3 3c 86 61 c1 bd d9 93 90 3c eb 42 75 3d
       0.019986961 -0.09442429 0.017648624 0.05987827
0003d0 ac a4 8d 3d ec dc 1b bd 77 90 f6 3d 91 b7 a2 bd
       0.06916174 -0.038052484 0.12039273 -0.07945169
0003e0 9b af 41 bc 25 f0 b5 bc c6 73 9f bd 00 d2 37 bd
       -0.011821653 -0.022209236 -0.07785754 -0.044878006
0003f0 ed 6b 2b 3d d1 a1 e2 bd 9f c1 f7 3c 46 a3 11 be
       0.041850973 -0.1106602 0.030243693 -0.1422244

fc.bias f4 [10]
000000 d3 a5 49 be b5 13 a6 be 39 03 fb bd 18 1c 09 3e
       -0.19692163 -0.3243691 -0.12256474 0.13389623
000010 3a 85 8e 3e 79 33 2e 3f 84 de fe 3c 4f e7 35 bc
       0.2783602 0.6804729 0.031111963 -0.011102512
000020 f5 33 7e bd 26 82 2f be
       -0.06206127 -0.17139491
