model.pth (torch, 288031 bytes, 6 tensors)

lstm.weight_ih_l0 f4 [512, 7]
-0.061362967 -0.04783518 -0.051650763 0.09225546 0.15321031 -0.03016158 0.019720713 -0.071421936
0.059040207 0.06686725 0.08346329 0.0640686 0.05417749 0.008195928 -0.069535166 0.045021642
0.015769104 0.07730724 0.14974773 0.07413821 -0.0037244637 0.03833925 -0.030224418 0.08178943
0.06340665 -0.09748702 -0.017772475 -0.046778046 0.31149307 -0.021422883 -0.082859956 0.032743298
0.12724572 0.10313143 -0.12768959 0.0376976 0.06251529 0.03654902 0.06761065 0.037931595
-1.2704935e-05 0.1803425 -0.021449408 0.10364669 0.07745604 0.0321979 0.024739057 0.09097556
0.008361401 -0.04573836 0.030739432 0.05936597 -0.05841004 -0.018980633 -0.0011249708 -0.06417674
-0.06685397 0.04429769 -0.012640632 0.051895842 0.051365487 0.014312241 0.10534396 0.050243396
0.08202007 0.047258038 0.1294306 0.053823475 0.08657024 0.0023087573 -0.003222237 0.006126321
-0.05163825 -0.04098962 -0.1332344 -0.094657645 0.08953353 -0.06546014 0.12979248 -0.05837854
0.052361555 -0.022980988 -0.05800629 -0.013964419 -0.04855473 0.010454911 -0.088741004 0.020691156
0.15525785 0.069779426 -0.1013444 0.077615075 -0.020944666 0.044740707 0.009586022 0.102417104
-0.07380598 0.007203341 -0.010683026 0.10946698 0.0019069046 0.0465904 0.118011154 -0.08860027
0.13453695 -0.028034097 0.04367578 0.07804877 0.057852387 0.02081268 -0.044969693 -0.0678299
0.008751908 0.010086399 -0.075743444 0.03406081 0.06760986 -0.03229293 0.09697529 0.030922549
0.11368154 0.047239356 0.044169057 0.04751452 -0.025814135 0.02749147 0.04408574 0.06863184
0.087476864 0.021749575 0.1227534 -0.031299718 0.037647415 0.06382007 0.0006991931 -0.07900037
-0.053444006 0.04681411 0.038074106 -0.07951352 0.026660072 -0.09138037 0.05117217 -0.10371044
0.18098381 0.075843915 -0.11005988 -0.08233545 0.097903185 -0.0055414457 0.030976448 0.13109127
-0.052591965 0.0017905431 0.06799314 -0.056153145 0.05432626 0.016586253 -0.00064072595 0.16641477
-0.09521006 0.081140175 0.103279375 0.028308857 -0.048644375 -0.036008395 -0.051442474 -0.08956557
-0.011472142 -0.04714605 0.061029714 0.044729833 0.0020639312 0.024897484 -0.05826379 -0.07493756
0.08693426 -0.04027816 -0.031674128 0.0578591 -0.059688333 -0.036947943 0.14440423 0.09555422
0.033368487 0.027208297 0.24526815 -0.117691286 -0.14030023 -0.013524064 -0.02555577 0.062129505
-0.039865308 0.14170238 -0.063361466 -0.05194144 -0.008837464 0.014515504 -0.06828501 0.010396611
0.036741115 -0.030731628 0.09903128 -0.06152223 0.08963635 -0.025232382 0.044209987 0.04917593
-0.05938307 -0.0985027 0.08785838 0.04788312 0.0337186 0.045354266 0.07270931 -0.1421641
0.06852598 0.088922985 0.09540222 -0.06689258 0.00611153 -0.0071623875 0.02932717 0.007457701
-0.007374295 0.009531385 0.059880737 -0.022483643 0.05637216 -0.18785143 -0.0026176334 0.050154448
-0.039217725 0.0009824329 0.018553792 0.059627295 0.00011273699 0.06265837 0.094926246 0.0659181
0.08804397 0.07478192 0.06324454 -0.031062517 0.074104086 0.1624801 -0.054358773 -0.018678147
0.06830235 0.025329266 0.18211877 -0.06721446 0.019087227 0.033158313 -0.08636821 -0.024326354
00000000: bc57 7bbd d2ee 43bd c08f 53bd 6ef0 bc3d
00000010: 2ae3 1c3e 6b15 f7bc 558d a13c aa45 92bd
00000020: 25d4 713d b2f1 883d cdee aa3d 6636 833d
00000030: 37e9 5d3d 3748 063c 7468 8ebd 9d68 383d
00000040: 352e 813c 4253 9e3d 7857 193e c6d5 973d
00000050: 2216 74bb 9e09 1d3d 3399 f7bc 3781 a73d
00000060: 59db 813d 46a7 c7bd 9597 91bc 569a 3fbd
00000070: 057c 9f3e 0b7f afbc 7bb2 a9bd d61d 063d
00000080: b44c 023e 9236 d33d 0fc1 02be cc68 1a3d
00000090: 0408 803d 6db4 153d 7477 8a3d 295e 1b3d
000000a0: 4827 55b7 b4ab 383e abb6 afbc b744 d43d
000000b0: 46a1 9e3d f2e1 033d 90a9 ca3c 6551 ba3d
000000c0: 42fe 083c 2658 3bbd 43d1 fb3c bb29 733d
000000d0: 5e3f 6fbd 467d 9bbc c273 93ba 186f 83bd
000000e0: bcea 88bd 7f71 353d a71a 4fbc bc90 543d
000000f0: 9e64 523d e47d 6a3c 93be d73d 05cc 4d3d
00000100: 23fa a73d a591 413d 7589 043e 0176 5c3d
00000110: bd4b b13d 854e 173b 2b2c 53bb 4ebf c83b
00000120: a182 53bd bbe4 27bd 996e 08be dedb c1bd
00000130: 5b5d b73d f70f 86bd 52e8 043e 561e 6fbd
00000140: 1279 563d a042 bcbc 0198 6dbd 05cb 64bc
00000150: 53e1 46bd 134b 2b3c d8bd b5bd 8080 a93c
00000160: eafb 1e3e 84e8 8e3d a78d cfbd a7f4 9e3d
00000170: 2694 abbc 0842 373d b10e 1d3c 0fc0 d13d
00000180: 9727 97bd 010a ec3b dc07 2fbc 3930 e03d
00000190: 1af1 f93a 93d5 3e3d d5af f13d 0f74 b5bd
000001a0: 0ec4 093e c3a7 e5bc 60e5 323d 09d8 9f3d
000001b0: a0f6 6c3d 5a7f aa3c 2432 38bd 67ea 8abd
000001c0: 2a64 0f3c 6c41 253c 611f 9bbd 5983 0b3d
000001d0: 0a77 8a3d 9745 04bd fb9a c63d 4951 fd3c
000001e0: ded1 e83d 0e7e 413d 9dea 343d 969e 423d
000001f0: 2a78 d3bc cb35 e13c 4093 343d da8e 8c3d
00000200: 1227 b33d 2a2c b23c 2266 fb3d 2234 00bd
00000210: 2d34 1a3d 19b4 823d 0e4a 373a f2ca a1bd
00000220: 1ae8 5abd 27c0 3f3d 98f3 1b3d fcd7 a2bd
00000230: 3966 da3c a225 bbbd e999 513d 2466 d4bd
00000240: d253 393e 0e54 9b3d 1367 e1bd 7d9f a8bd
00000250: 7781 c83d 0495 b5bb 52c2 fd3c ca3c 063e
00000260: ac6a 57bd a8b0 ea3a fd3f 8b3d d700 66bd
00000270: 3685 5e3d e5df 873c 64f6 27ba a268 2a3e
00000280: 7efd c2bd d22c a63d 2384 d33d fae7 e73c
00000290: 533f 47bd 8a7d 13bd 58b5 52bd 276e b7bd
000002a0: a7f5 3bbc 371c 41bd 4bfa 793d a136 373d
000002b0: 0543 073b cff5 cb3c 03a6 6ebd dd78 99bd
000002c0: 970a b23d b6fa 24bd bbbc 01bd aafd 6c3d
000002d0: c17b 74bd ba56 17bd b4de 133e eeb1 c33d
000002e0: 65ad 083d efe3 de3c 9327 7b3e 2108 f1bd
000002f0: ddaa 0fbe 0994 5dbc 565a d1bc 827b 7e3d
00000300: ce49 23bd 6e1a 113e a8c3 81bd 8cc0 54bd
00000310: 03cb 10bc 70d2 6d3c 03d9 8bbd 8c56 2a3c
00000320: da7d 163d e5c0 fbbc e9d0 ca3d bcfe 7bbd
00000330: 4393 b73d 24b4 cebc 8815 353d b36c 493d
00000340: a93b 73bd c9bb c9bd 18ef b33d 1721 443d
00000350: 841c 0a3d 65c5 393d 9ee8 943d 7793 11be
00000360: 5957 8c3d 411d b63d 3d62 c33d fafe 88bd
00000370: 3b43 c83b 76b2 eabb 893f f03c bb5f f43b
00000380: 12a4 f1bb 8729 1c3c 8145 753d 9e2f b8bc
00000390: 7ee6 663d 205c 40be 9a8c 2bbb c06e 4d3d
000003a0: c4a2 20bd fac4 803a 1ffe 973c c03b 743d
000003b0: 366d ec38 0853 803d b168 c23d 1200 873d
000003c0: 6650 b43d 4327 993d 5a86 813d d276 febc
000003d0: e2c3 973d 2f61 263e 4ea7 5ebd ea02 99bc
000003e0: 1ae2 8b3d 527f cf3c 587d 3a3e bca7 89bd
000003f0: d15c 9c3c 03d1 073d d1e1 b0bd 1048 c7bc

lstm.weight_hh_l0 f4 [512, 128]
-0.08626161 -0.07396344 -0.047024217 0.07855468 -0.009066381 -0.0069669485 -0.07616347 -0.01886414
-0.073520385 0.032230392 0.00085550547 0.07819941 -0.02476336 0.02362024 -0.02552846 0.052519657
-0.04490634 -0.06792103 0.019877888 -0.0820793 -0.013101429 0.027787067 0.022847392 0.08599936
0.08500833 -0.03183007 -0.06336813 -0.05960146 0.0057746097 0.05516415 0.031525202 0.043129526
-0.05488178 -0.06327379 0.015120417 0.0405628 0.067061566 -0.0671691 -0.03908155 -0.07972286
-0.068125725 -0.066978484 -0.02242262 -0.03608474 -0.036958 0.03523054 0.025685638 0.04032556
0.017422825 -0.047678802 0.038785644 -0.007682167 0.07701882 -0.046150997 -0.07124146 0.03277932
-0.010885447 -0.0782638 -0.06117308 -0.06127469 0.008520775 -0.0035429597 -0.021128751 -0.035561394
0.026208699 -0.056939676 0.061149962 -0.021357529 0.076612435 0.0007110089 -0.0056873932 -0.031024717
0.062738456 0.03752727 -0.0024002418 0.084072314 0.042054094 0.07175339 -0.054337613 -0.052916653
-0.07084367 0.055045746 0.03946545 -0.06940431 0.0016708076 -0.006789021 -0.043496832 0.015278555
0.004861504 0.08132965 0.013112836 0.032189667 0.009558059 -0.017688602 -0.043332703 -0.01878997
0.013273276 -0.08329536 -0.002976641 0.08619171 -0.008231111 0.023161307 0.056131892 -0.07279981
-0.07179601 -0.086956196 -0.0065060705 0.034278736 -0.010395959 0.004410498 -0.06175138 0.07036201
-0.084253415 0.025073148 -0.049903017 -0.066665486 0.01223392 0.06044773 -0.0703893 0.057913683
-0.05945559 -0.04995733 -0.083139166 -0.07645148 -0.047367997 0.08458047 -0.06092234 0.008950137
0.0039546937 -0.06905047 -0.07676215 0.007250324 -0.061265975 0.05875943 -0.04515196 0.06259129
0.018552497 0.024743564 0.0116305575 -0.0342872 -0.07761221 -0.02696317 -0.037209902 -0.08814483
0.028945886 -0.047535777 -0.08551334 -0.067421965 -0.012952641 0.022991456 -0.014779612 0.08282984
-0.073369876 0.0008652881 0.028958425 0.06033089 0.054745995 -0.05070565 0.0060108975 -0.017037138
-0.015080057 0.042877354 -0.06222056 -0.0694398 0.012123078 -0.046587944 -0.0531618 -0.07154481
-0.011845179 -0.080271296 0.04169569 0.009832703 0.07667569 0.042121165 -0.080385804 -0.08124878
-0.05484521 0.04950913 0.0012174994 0.028225705 -0.057356067 0.054348327 -0.065072455 -0.08786809
0.014157228 0.055067427 0.0741206 -0.08276835 -0.007969618 0.08375753 -0.08336231 0.07120653
-0.083793454 -0.0021617413 -0.027321767 -0.0560838 -0.014474452 -0.06725556 0.08515414 -0.055231147
-0.054792397 -0.011444189 -0.0041801855 0.033008434 0.01538188 -0.04533553 -0.016133599 -0.0077555478
-0.020583458 -0.019621246 -0.009519152 0.0873689 -0.073865145 -0.08822156 -0.068709284 -0.03832988
0.05064047 0.03276279 0.06263953 0.040472917 0.053343512 -0.034475952 -0.047488235 0.0424053
-0.049300674 -0.00760971 -0.009020276 0.04705117 0.060613923 0.030596547 -0.018035486 0.04325498
0.07888534 0.07327063 0.01098834 0.030987278 -0.06243729 0.007457286 -0.025134102 -0.0359905
0.06115929 -0.0774251 -0.024445444 0.03279025 0.051024504 -0.06824887 0.035745658 -0.0046479553
-0.079525225 0.06922228 -0.009346791 0.011361197 -0.018074013 0.06344492 -0.053474646 0.0014397651
00000000: eda9 b0bd 257a 97bd 779c 40bd 47e1 a03d
00000010: 288b 14bc 004b e4bb 98fb 9bbd f888 9abc
00000020: db91 96bd 0404 043d 0044 603a 0327 a03d
00000030: 88dc cabc 3c7f c13c 1021 d1bc da1e 573d
00000040: b6ef 37bd 2e1a 8bbd f4d6 a23c 3119 a8bd
00000050: 60a7 56bc b4a1 e33c 742a bb3c 6f20 b03d
00000060: d918 ae3d 3f60 02bd 26c7 81bd a920 74bd
00000070: f038 bd3b cef3 613d 9220 013d 96a8 303d
00000080: b8cb 60bd b095 81bd a0bb 773c 2e25 263d
00000090: 9357 893d f48f 89bd fa13 20bd bd45 a3bd
000000a0: 8085 8bbd 042c 89bd a4af b7bc 98cd 13bd
000000b0: 4661 17bd e64d 103d b06a d23c 6a2c 253d
000000c0: 50ba 8e3c d94a 43bd b2dd 1e3d b0ba fbbb
000000d0: 0bbc 9d3d d408 3dbd 0be7 91bd 9c43 063d
000000e0: e058 32bc c548 a0bd a090 7abd 2bfb 7abd
000000f0: b89a 0b3c 0031 68bb 3416 adbc d3a8 11bd
00000100: a0b3 d63c 9439 69bd 6278 7a3d fcf5 aebc
00000110: fbe6 9c3d 0063 3a3a 505d babb 8c27 febc
00000120: 057d 803d 32b6 193d 604d 1dbb 1b2e ac3d
00000130: ea40 2c3d 71f3 923d 1e91 5ebd 22bf 58bd
00000140: 7c16 91bd a677 613d 86a6 213d d923 8ebd
00000150: 00ff da3a 7076 debb bc29 32bd e852 7a3c
00000160: 404d 9f3b 2990 a63d 38d7 563c 50d9 033d
00000170: 6899 1c3c b0e7 90bc a27d 31bd 6ced 99bc
00000180: 2878 593c c296 aabd c013 43bb 4785 b03d
00000190: c8db 06bc c8bc bd3c 8eea 653d 1118 95bd
000001a0: c909 93bd 1716 b2bd e030 d5bb dc67 0c3d
000001b0: d053 2abc f085 903b 04ef 7cbd f519 903d
000001c0: 0e8d acbd 3466 cd3c 1b67 4cbd ea87 88bd
000001d0: c870 483c 0a98 773d 4428 90bd e636 6d3d
000001e0: b487 73bd 0fa0 4cbd de44 aabd 9892 9cbd
000001f0: f204 42bd 8738 ad3d b489 79bd 98a3 123c
00000200: 6096 813b 556a 8dbd 7935 9dbd 2094 ed3b
00000210: 08f2 7abd baad 703d 43f1 38bd dd2f 803d
00000220: 68fb 973c 04b3 ca3c 188e 3e3c bc70 0cbd
00000230: 26f3 9ebd dee1 dcbc 6969 18bd 4785 b4bd
00000240: ec1f ed3c e0b4 42bd 9e21 afbd 8714 8abd
00000250: 5037 54bc 9458 bc3c 3026 72bc b1a2 a93d
00000260: f242 96bd 80d4 623a 383a ed3c 861d 773d
00000270: 563d 603d bab0 4fbd 10f7 c43b 7891 8bbc
00000280: 5812 77bc 2aa0 2f3d fcda 7ebd 7436 8ebd
00000290: e09f 463c 00d3 3ebd 30c0 59bd 1686 92bd
000002a0: 4812 42bc 4765 a4bd 1ac9 2a3d 5819 213c
000002b0: 2508 9d3d 3e87 2c3d 50a1 a4bd c365 a6bd
000002c0: 5fa5 60bd 16ca 4a3d 8094 9f3a 9839 e73c
000002d0: 32ee 6abd 5a9c 5e3d b544 85bd 2ff4 b3bd
000002e0: b8f3 673c 628e 613d 8bcc 973d 7482 a9bd
000002f0: 0093 02bc 1189 ab3d dcb9 aabd bbd4 913d
00000300: e79b abbd 00ac 0dbb e6d1 dfbc 20b8 65bd
00000310: 4026 6dbc 48bd 89bd 4b65 ae3d 0e3a 62bd
00000320: fe6d 60bd 6880 3bbc f0f9 88bb da33 073d
00000330: 4804 7c3c c0b1 39bd 9c2a 84bc 4022 febb
00000340: a49e a8bc bcbc a0bc 38f6 1bbc 77ee b23d
00000350: 9c46 97bd 81ad b4bd 74b7 8cbd cbff 1cbd
00000360: 626c 4f3d 4632 063d 2749 803d eec6 253d
00000370: ba7e 5a3d a836 0dbd 0683 42bd 2eb1 2d3d
00000380: 81ef 49bd e05a f9bb c8c9 13bc bab8 403d
00000390: 4e46 783d 9ca5 fa3c 28bf 93bc 222c 313d
000003a0: a38e a13d e90e 963d 7008 343c 08d9 fd3c
000003b0: 3ebe 7fbd 405c f43b 08e6 cdbc c66a 13bd
000003c0: 2a82 7a3d 0d91 9ebd d041 c8bc 124f 063d
000003d0: 12ff 503d 10c6 8bbd 0a6a 123d e04d 98bb
000003e0: 1fde a2bd 69c4 8d3d 4823 19bc 5024 3a3c
000003f0: f40f 94bc 69ef 813d 3b08 5bbd 80b6 bc3a

lstm.bias_ih_l0 f4 [512]
-0.062988356 -0.08034841 -0.009984908 0.07762324 0.08317019 0.0009640023 0.07541118 0.06510094
-0.013923383 0.0034890801 0.071459614 0.0052367263 -0.09423473 -0.05077317 -0.008530874 -0.066168174
0.0891972 0.078409724 0.049640384 0.01677957 -0.08895987 0.03192194 -0.031980295 0.05670091
-0.026949868 0.011542314 -0.070496455 -0.01656524 -0.025216542 0.069390304 -0.0031388155 -0.06609541
-0.032307748 -0.022081112 0.07034291 -0.037949275 -0.0014224023 0.025177097 0.07877533 -0.015061548
-0.07497235 0.072171666 0.001125951 0.02720112 -0.046563286 0.04507501 -0.024873689 0.0030347963
0.013630662 0.067431934 -0.020765662 0.021044929 -0.03652708 -0.02478191 -0.071079694 0.034609847
-0.061786797 -0.070476525 -0.0076716333 -0.004805028 0.005463636 0.08455511 0.088496804 0.081190966
0.030285776 -0.058763076 -0.004703786 0.040471517 -0.074528955 0.038332887 0.014830379 0.07152585
0.0174417 0.047314934 0.079505526 0.068862945 0.080673456 -0.055118483 0.061259247 -0.015382705
0.020631421 -0.06798673 -0.05056775 -0.045360964 0.090915374 -0.014611276 0.024783047 -0.06907757
-0.029197337 0.07441625 -0.06464192 -0.0060929055 0.027964666 0.076612644 -0.059022147 -0.07821095
-0.014757047 0.04906792 -0.028314816 -0.065836266 0.04105069 -0.031909958 0.07712674 -0.019762509
-0.06925244 -0.065203846 -0.038677413 -0.022477455 0.0019010619 0.02796491 0.055829868 0.06420835
-0.0051148636 -0.021813981 -0.052290864 0.07569367 0.086974114 -0.055848517 -0.027829872 0.007846132
0.038732134 0.085396 0.0048642885 0.113217466 0.010742163 -0.009218188 -0.074274756 0.07275708
-0.0074378476 0.016632095 -0.080914706 0.0036249459 0.060967706 -0.04766096 -0.01157286 0.060491733
-0.073163874 -0.06357005 0.03018514 0.027023084 0.039608948 -0.03455619 -0.04396188 0.06786338
0.0031297952 -0.048843708 0.003718838 0.034599043 -0.07330221 -0.08352279 0.052385576 0.07726049
-0.07962726 -0.05204495 0.053407438 -0.012711301 -0.05832956 0.066310324 0.052045085 -0.087691784
0.008760013 -0.03363152 0.054839335 0.010103308 0.014561169 -0.06502788 -0.085696734 -0.083709635
-0.077773504 0.008870065 -0.022054054 0.0150088 0.0807978 0.08490174 -0.010979272 0.011119194
0.069668956 -0.051572327 -0.052140888 -0.03331727 -0.04046328 -0.03197518 0.08565361 -0.06425146
0.08454225 -0.003702104 0.065199636 0.06559298 -0.027713176 0.0016399771 0.017687328 -0.061287805
0.02245956 0.01607813 0.05447387 0.02368562 -0.07830793 -0.051699683 0.005065806 -0.08399546
-0.060377605 -0.071587674 0.025187775 0.06686082 0.08068346 -0.071473 0.05927608 0.016921788
-0.02508372 0.03696636 -0.061290547 -0.053637426 0.023523495 -0.07174863 0.047600202 0.025719374
-0.051930595 0.0036121085 -0.031535726 -0.034232806 0.055326037 -0.032135982 -0.07313615 -0.0006034374
0.07878701 0.056651153 0.0220033 -0.0843315 -0.02957597 -0.082503796 0.012156248 -0.086957596
-0.026980389 -0.047333322 0.009620555 -0.013070866 -0.004965849 -0.0067749396 -0.023008987 -0.028596573
0.062246703 0.036921583 0.06869369 -0.07045544 -0.07405022 0.054578684 -0.07303631 0.02298823
0.012582801 0.031301677 0.018853731 0.0148388 0.0456511 -0.05852605 -0.024874121 -0.063847825
00000000: 0a00 81bd b58d a4bd bd97 23bc eff8 9e3d
00000010: 2255 aa3d 19b5 7c3a 2d71 9a3d a453 853d
00000020: e71e 64bc 0da9 643b 6b59 923d d898 ab3b
00000030: 23fe c0bd 87f7 4fbd 14c5 0bbc 2e83 87bd
00000040: 06ad b63d 4795 a03d b753 4b3d 4f75 893c
00000050: 9830 b6bd 95c0 023d c5fd 02bd 373f 683d
00000060: f8c5 dcbc f91b 3d3c 7260 90bd d4b3 87bc
00000070: ec92 cebc 811c 8e3d 96b4 4dbb 085d 87bd
00000080: 2155 04bd 73e3 b4bc f20f 903d b370 1bbd
00000090: e76f baba 3340 ce3c f654 a13d b6c4 76bc
000000a0: 1a8b 99bd bdce 933d a594 933a e2d4 de3c
000000b0: 25b9 3ebd 93a0 383d e8c3 cbbc 6fe3 463b
000000c0: 2453 5f3c c119 8a3d c01c aabc 6a66 ac3c
000000d0: 6b9d 15bd 6f03 cbbc 3b92 91bd 0ec3 0d3d
000000e0: 2714 7dbd ff55 90bd 5362 fbbb 7f73 9dbb
000000f0: 4d08 b33b 3b2b ad3d d03d b53d 7347 a63d
00000100: e019 f83c 8db1 70bd 3822 9abb 76c5 253d
00000110: a3a2 98bd f202 1d3d 1efb 723c 257c 923d
00000120: e5e1 8e3c 4ecd 413d cbd3 a23d 0408 8d3d
00000130: 2038 a53d ebc3 61bd faea 7a3d be07 7cbc
00000140: 3a03 a93c a03c 8bbd 2120 4fbd 6bcc 39bd
00000150: d731 ba3d 2264 6fbc d105 cb3c 8b78 8dbd
00000160: 412f efbc 8c67 983d fc62 84bd ffa6 c7bb
00000170: 2816 e53c 17e7 9c3d 35c1 71bd 102d a0bd
00000180: 8bc7 71bc 71fb 483d 79f4 e7bc 2ad5 86bd
00000190: c524 283d 04b4 02bd a0f4 9d3d fce4 a1bc
000001a0: 39d4 8dbd 9889 85bd 356c 1ebd a422 b8bc
000001b0: 0d2d f93a ab16 e53c dcad 643d ab7f 833d
000001c0: 969a a7bb 3cb3 b2bc f22e 56bd 4805 9b3d
000001d0: 7c1f b23d 6ac1 64bd 79fb e3bc 108d 003c
000001e0: 96a5 1e3d 19e4 ae3d 9c64 9f3b 8fde e73d
000001f0: e6ff 2f3c e207 17bc 5d1d 98bd aa01 953d
00000200: 30b9 f3bb 0840 883c 9cb6 a5bd 8090 6d3b
00000210: 46b9 793d 2438 43bd 189c 3dbc 2ec6 773d
00000220: f1d6 95bd 0431 82bd d446 f73c 845f dd3c
00000230: fe3c 223d cb8a 0dbd 5f11 34bd f5fb 8a3d
00000240: 401d 4d3b 5710 48bd c0b7 733b bab7 0d3d
00000250: 781f 96bd ff0d abbd 4292 563d bf3a 9e3d
00000260: 9e13 a3bd 162d 55bd c2c1 5a3d 1043 50bc
00000270: faea 6ebd b5cd 873d 3a2d 553d c097 b3bd
00000280: 2886 0f3c 34c1 09bd 369f 603d 5888 253c
00000290: f891 6e3c 562d 85bd c581 afbd f56f abbd
000002a0: b747 9fbd c053 113c b4aa b4bc 78e7 753c
000002b0: 5179 a53d f7e0 ad3d 68e2 33bc 482d 363c
000002c0: 99ae 8e3d 813d 53bd af91 55bd b177 08bd
000002d0: d3bc 25bd 68f8 02bd 296b af3d 4596 83bd
000002e0: 7d24 ad3d 009f 72bb 6387 853d 9d55 863d
000002f0: be06 e3bc 80f4 d63a 04e5 903c ec08 7bbd
00000300: 1cfd b73c 48b6 833c fe1f 5f3d 5808 c23c
00000310: e85f a0bd 0cc3 53bd 10ff a53b d005 acbd
00000320: 824e 77bd 8f9c 92bd 9856 ce3c 53ee 883d
00000330: 5f3d a53d 7060 92bd 7acb 723d 909f 8a3c
00000340: 607c cdbc 0a6a 173d cc0b 7bbd ebb2 5bbd
00000350: 58b4 c03c f2f0 92bd 6ef8 423d 70b1 d23c
00000360: 2db5 54bd 20b9 6c3b 9b2b 01bd b337 0cbd
00000370: 8e9d 623d 05a1 03bd 68c8 95bd 0030 1eba
00000380: 155b a13d 0a0b 683d 4440 b43c feb5 acbd
00000390: 4e49 f2bc c0f7 a8bd 002b 473c d316 b2bd
000003a0: fa05 ddbc 96e0 41bd 889f 1d3c 3027 56bc
000003b0: 90b8 a2bb 5000 debb 587d bcbc 5c43 eabc
000003c0: 66f6 7e3d 163b 173d 47af 8c3d f14a 90bd
000003d0: a4a7 97bd e68d 5f3d 1094 95bd d051 bc3c
000003e0: 1828 4e3c 3036 003d 2473 9a3c 701e 733c
000003f0: a6fc 3a3d 03b9 6fbd d0c4 cbbc a6c2 82bd

lstm.bias_hh_l0 f4 [512]
0.030264493 -0.08895969 0.019779257 -0.023415891 -0.059280246 0.05231125 -0.028400961 -0.062437605
-0.0017742038 0.0032800513 0.012911285 0.017602498 -0.00059453456 0.07963737 0.06989199 0.0830621
0.029483361 0.05410131 0.05567235 0.05865915 0.062309626 0.024911206 -0.027967634 -0.028071083
-0.016217269 -0.0060583004 -0.05801665 0.045587398 0.09006616 0.004242024 -0.0815662 -0.04359434
-0.081051424 0.027824806 0.011046167 -0.06869782 0.048939873 -0.06921902 0.02874382 -0.07094828
-0.08470014 0.021009339 0.081019066 0.011253373 0.048005816 0.071489856 -0.01988627 0.062176052
0.037839226 0.00010145421 -0.055200197 0.002572234 -0.055491995 -0.038336765 -0.07221476 0.058071405
0.030184362 0.015190344 -0.02597395 0.045849185 -0.010608742 -0.05837576 -0.03508357 0.061583728
-0.020383492 -0.0222467 -0.054442275 0.07676722 -0.008256714 0.06523283 -0.05336028 0.009787699
0.06027229 -0.053488106 -0.026305208 0.0058063576 0.075395495 0.07972266 -0.06152863 0.020652512
0.007083391 -0.08021358 -0.02948659 -0.017851667 -0.026841994 -0.054080218 0.011486036 -0.010726555
-0.05655308 -0.03686489 -0.024216268 0.039012555 0.05562101 -0.035245117 -0.063972674 -0.030506874
-0.021186583 -0.03348795 0.06361687 -0.04366064 0.015253186 0.003461772 -0.01545199 0.0585833
-0.024191486 0.07904777 0.055352192 -0.053361546 -0.01890806 0.085296445 0.10889387 0.06775444
0.08300478 0.054871462 -0.04809644 -0.02200564 -0.023661384 0.079717875 0.04492566 -0.02527668
0.07389065 0.028012972 0.08390615 0.018941427 0.08778485 0.07643249 0.08026671 0.08060151
0.072151415 -0.013388276 -0.015044019 0.006936878 0.08523219 -0.068159446 0.058757402 0.0037084073
-0.04936476 0.0051414 -0.05282904 0.087842666 0.0038332567 0.0743326 -0.048288308 -0.061652713
-0.06327358 -0.071087375 -0.032641903 0.05329963 0.08631166 0.041802563 0.063509546 0.0050220713
0.058366857 0.06773835 0.047155164 0.07546004 0.019520208 -0.007425368 0.06299118 -0.045390848
-0.050603054 0.0411964 0.073417 -0.037877508 0.064800434 -0.0276171 -0.025842078 0.013050571
-0.04935923 -0.023790166 0.06641588 0.065830596 -0.08269512 -0.002339147 -0.034151834 -0.08320218
0.05533532 -0.083498634 -0.041397076 0.03102716 -8.34465e-06 -0.049978122 0.04334209 0.015650421
0.052521847 0.050023384 -0.0023450926 0.060834102 -0.059525784 0.050823696 0.039532058 -0.020852976
0.05472622 0.07302343 -0.011571541 -0.04197487 -0.083114564 -0.05362337 -0.031231087 -0.04664206
0.086113624 -0.012933068 -0.032661848 0.06849519 0.053263135 -0.05369102 0.03885653 0.019493774
-0.06692144 0.04139278 -0.03472482 0.028604992 0.040012322 -0.046814695 0.054398708 -0.00751663
0.063471176 0.02990263 -0.071447566 -0.0069693476 0.056906424 -0.046631105 0.07004798 0.031706065
-0.079633564 0.06330573 0.006777659 0.07879209 -0.08656114 -0.01823128 0.07655177 0.041522495
0.04320822 -0.050679278 -0.043930195 0.020410866 0.062694825 0.046988256 -0.056776304 0.04793527
0.011343554 0.0456725 0.05728925 -0.07819082 -0.054925844 -0.046119504 -0.07747817 0.03421229
-0.08712172 -0.062346682 -0.08417217 0.005165033 -0.067702115 0.08295246 -0.050880898 -0.081196584
00000000: 3eed f73c 7f30 b6bd 1c08 a23c afd2 bfbc
00000010: d8cf 72bd 5244 563d 22a9 e8bc 93be 7fbd
00000020: 678c e8ba 21f6 563b db89 533c 1d33 903c
00000030: 8ada 1bba eb18 a33d 8823 8f3d 761c aa3d
00000040: 1787 f13c 5699 5d3d b108 643d 9444 703d
00000050: 6138 7f3d 9612 cc3c 611c e5bc 54f5 e5bc
00000060: 14da 84bc b584 c6bb dea2 6dbd dab9 3a3d
00000070: 9b74 b83d ad00 8b3b 2e0c a7bd fb8f 32bd
00000080: 4afe a5bd d9f0 e33c fcfa 343c 71b1 8cbd
00000090: 2d75 483d b4c2 8dbd 2978 eb3c 554d 91bd
000000a0: 4477 adbd c71b ac3c 53ed a53d 1160 383c
000000b0: bfa1 443d 4669 923d 88e8 a2bc 51ac 7e3d
000000c0: 4efd 1a3d d0c3 d438 9a19 62bd ed92 283b
000000d0: 934b 63bd 0307 1dbd 55e5 93bd 48dc 6d3d
000000e0: 3245 f73c ece0 783c 52c7 d4bc 5bcc 3b3d
000000f0: 4ad0 2dbc 6c1b 6fbd cab3 0fbd 383f 7c3d
00000100: 48fb a6bc b63e b6bc ddfe 5ebd 2238 9d3d
00000110: 2b47 07bc ca98 853d 4f90 5abd 965c 203c
00000120: 14e0 763d 5816 5bbd 057e d7bc 4243 be3b
00000130: f468 9a3d a245 a33d 7205 7cbd 752f a93c
00000140: ca1b e83b 0447 a4bd dc8d f1bc a93d 92bc
00000150: bee3 dbbc 3883 5dbd ed2f 3c3c 6fbe 2fbc
00000160: 34a4 67bd a4ff 16bd 3261 c6bc a1cb 1f3d
00000170: dbd2 633d 2f5d 10bd 1b04 83bd 8de9 f9bc
00000180: 7c8f adbc a92a 09bd 9049 823d 80d5 32bd
00000190: 80e8 793c e6de 623b 582a 7dbc 0bf5 6f3d
000001a0: 392d c6bc cce3 a13d fbb8 623d a391 5abd
000001b0: 13e5 9abc e7af ae3d c003 df3d d7c2 8a3d
000001c0: 69fe a93d e6c0 603d c600 45bd 2c45 b4bc
000001d0: 85d5 c1bc 2043 a33d f803 383d 0a11 cfbc
000001e0: fb53 973d 767b e53c fdd6 ab3d 0d2b 9b3c
000001f0: 8bc8 b33d a388 9c3d df62 a43d 6812 a53d
00000200: 1fc4 933d 805a 5bbc 307b 76bc c04e e33b
00000210: 378e ae3d 2e97 8bbd 9aab 703d c008 733b
00000220: b432 4abd 3079 a83b 4363 58bd dbe6 b33d
00000230: 6037 7b3b b13b 983d f6c9 45bd 8e87 7cbd
00000240: 9495 81bd 4296 91bd 84b3 05bd b650 5a3d
00000250: 2bc4 b03d 2a39 2b3d 4b11 823d 3090 a43b
00000260: 1612 6f3d 67ba 8a3d c625 413d cb8a 9a3d
00000270: d8e8 9f3c 8050 f3bb 8501 813d c1eb 39bd
00000280: 2645 4fbd 8ebd 283d a75b 963d 7225 1bbd
00000290: 17b6 843d 423d e2bc c4b2 d3bc 10d2 553c
000002a0: e72c 4abd 98e3 c2bc 0d05 883d 31d2 863d
000002b0: 0f5c a9bd 604c 19bb cbe2 0bbd e865 aabd
000002c0: 4aa7 623d 5501 abbd fb8f 29bd ac2c fe3c
000002d0: 0000 0cb7 dcb5 4cbd 7a87 313d 5035 803c
000002e0: 2621 573d 52e5 4c3d 20b0 19bb 2e2d 793d
000002f0: 4fd1 73bd 822c 503d 5eec 213d dcd3 aabc
00000300: 9a28 603d 4f8d 953d 9096 3dbc d7ed 2bbd
00000310: f837 aabd 2ea4 5bbd 56d8 ffbc bf0b 3fbd
00000320: 575c b03d 38e5 53bc 6ec8 05bd 3547 8c3d
00000330: 722a 5a3d 1deb 5bbd 0628 1f3d 68b1 9f3c
00000340: 1c0e 89bd 7a8b 293d 9d3b 0ebd 0455 ea3c
00000350: f6e3 233d c4c0 3fbd 2ed1 5e3d 104e f6bb
00000360: 2dfd 813d 5cf6 f43c 1a53 92bd 205f e4bb
00000370: b616 693d 4200 3fbd 5175 8f3d 38de 013d
00000380: ec16 a3bd 6fa6 813d 2017 de3b bf5d a13d
00000390: f846 b1bd c459 95bc 2dc7 9c3d 7e13 2a3d
000003a0: 1afb 303d 1395 4fbd 26f0 33bd b034 a73c
000003b0: 2566 803d c276 403d 458e 68bd c657 443d
000003c0: 50da 393c 1613 3b3d 22a8 6a3d 8222 a0bd
000003d0: ecf9 60bd cee7 3cbd e0ac 9ebd 3022 0c3d
000003e0: df6c b2bd 3c5f 7fbd 7562 acbd 703f a93b
000003f0: 68a7 8abd fbe2 a93d 7d68 50bd 654a a6bd

fc.weight f4 [10, 128]
0.04410356 0.17335433 -0.00987433 0.091741346 0.12093437 0.047633156 -0.10518377 0.015928589
-0.070562035 0.12459116 0.0019462967 -0.001068627 0.14109264 -0.09132403 -0.09827043 -0.01622235
0.0026921304 0.0443903 -0.23921558 0.072549984 -0.05921319 0.09653743 0.025232542 -0.039456133
-0.01768661 -0.048079662 -0.1416343 -0.051127806 -0.04123903 0.0040302593 -0.037519857 -0.003145594
-0.20140877 -0.0896729 -0.07349219 -0.031170035 -0.19617946 -0.02039579 0.059582546 -0.08819618
0.059134465 0.031605545 0.026169296 -0.017081771 -0.07743019 -0.014256964 0.047131464 0.014549158
-0.07403436 0.14612092 0.008038105 -0.1149199 0.031940408 -0.004134245 -0.14492343 0.20891017
0.2869936 0.07066755 0.046757996 0.15300345 -0.20284072 -0.18995333 -0.014429846 -0.09175931
0.041301023 -0.10168522 0.10857751 -0.04331152 -0.016957372 -0.03886843 0.07621573 -0.0590905
0.080254 0.09630551 0.031153288 -0.077779695 0.04393942 -0.20412603 -0.12579156 -0.09742958
0.032538816 0.013009067 -0.23112932 -0.069017254 0.15474361 -0.13076822 -0.0758644 -0.12135713
0.014454867 -0.13167587 0.028814346 -0.1303357 -0.0028446852 0.09381042 -0.010539846 -0.084527396
0.03368151 -0.046571776 0.12900798 0.093605086 0.105220504 0.10880602 -0.07569176 0.023651881
0.08833809 -0.019937905 -0.016526725 0.05425571 0.12609212 0.11162618 0.22989133 0.030739533
-0.09584893 0.015747562 -0.09476796 0.05786601 0.026201706 0.10601284 0.15567207 0.03909417
0.03785884 0.011282459 0.09508016 -0.13272977 0.18271221 -0.17032182 -0.07724962 0.022823704
0.021328116 0.13468626 -0.123650566 0.10888491 0.0950904 -0.090725794 0.010391333 -0.05566739
-0.030679986 -0.029580925 -0.033090312 -0.05293816 0.12776896 -0.02677717 -0.13965122 0.023810191
-0.018757509 -0.02283644 -0.20538518 -0.07648462 -0.004615295 0.10158649 0.079157256 0.00389751
-0.06909448 -0.0576382 -0.13596004 0.08781101 -0.020628398 0.04462578 0.065992445 0.09855177
-0.14953311 0.061522003 -0.06609 -0.06487446 -0.08769167 -0.05777677 -0.03193185 -0.09006801
0.075039364 -0.037895456 -0.04560629 0.0017252824 0.061017938 -0.088275366 0.080888554 -0.110518426
-0.14442267 0.12166277 0.010961997 -0.03369393 0.14311773 -0.03274871 -0.002495342 0.20241794
0.181146 -0.004306543 0.14340746 0.110548854 -0.19062015 -0.19162099 0.012629353 -0.14681044
-0.018705588 -0.04204356 0.19054405 -0.04862424 -0.06197396 -0.031531326 -0.042565234 0.09999304
0.0358835 -0.028875623 -0.03424845 0.021409076 0.08432952 -0.1658049 -0.119551025 -0.06849784
0.0002220633 -0.0008777125 -0.21350163 -0.017132215 0.21498917 -0.05925839 -0.10778232 -0.1645337
0.045450266 -0.097842544 0.003682868 0.01711256 -0.12124625 0.10757009 0.057850584 -0.065016344
0.05727092 0.01194014 0.051727932 0.014632462 0.018328853 0.17762032 -0.15010984 -0.048694186
-0.040454067 -0.04913118 -0.00021283986 -0.03233737 0.14814325 0.062089305 0.26188087 -0.028432176
-0.047396217 -0.027375476 -0.064877026 -0.01784021 0.0060870904 0.060228057 0.16442332 -0.033936728
0.013951943 0.11264103 0.01621436 -0.02503516 0.14825228 -0.23738033 -0.008024 0.12931478
00000000: efa5 343d cc83 313e f1c7 21bc e3e2 bb3d
00000010: 70ac f73d fc1a 433d 976a d7bd ac7c 823c
00000020: d482 90bd a629 ff3d e11a ff3a 2c11 8cba
00000030: 977a 103e 1808 bbbd 0242 c9bd bce4 84bc
00000040: 746e 303b 9ad2 353d eef4 74be 1695 943d
00000050: 8889 72bd 6bb5 c53d 7ab4 ce3c c19c 21bd
00000060: 82e3 90bc 2eef 44bd 9508 11be 646b 51bd
00000070: 42ea 28bd 4410 843b 6cae 19bd 4f26 4ebb
00000080: 1a3e 4ebe 6da6 b7bd 1383 96bd 4d58 ffbc
00000090: 45e3 48be 1215 a7bc d40c 743d 33a0 b4bd
000000a0: fb36 723d d174 013d fe60 d63c 12ef 8bbc
000000b0: b893 9ebd 0b96 69bc ec0c 413d 975f 6e3c
000000c0: 549f 97bd b9a0 153e 42b2 033c 205b ebbd
000000d0: f2d3 023d 9078 87bb cf66 14be 8cec 553e
000000e0: d3f0 923e 26ba 903d 5085 3f3d f0ac 1c3e
000000f0: 7ab5 4fbe 2083 42be 296b 6cbc 4eec bbbd
00000100: 432b 293d 5740 d0bd e35d de3d 6c67 31bd
00000110: 30ea 8abc 8134 1fbd fe16 9c3d e108 72bd
00000120: 365c a43d d33b c53d 2e35 ff3c f64a 9fbd
00000130: d2f9 333d 6a06 51be 81cf 00be 2989 c7bd
00000140: 6c47 053d fb23 553c 2aad 6cbe eb58 8dbd
00000150: 1c75 1e3e 1be8 05be cb5e 9bbd 168a f8bd
00000160: 1bd4 6c3c 0ad6 06be 100c ec3c b976 05be
00000170: e66d 3abb ad1f c03d 51af 2cbc b31c adbd
00000180: 9ff5 093d 0cc2 3ebd ab1a 043e 06b4 bf3d
00000190: d97d d73d b1d5 de3d 4804 9bbd 97c1 c13c
000001a0: 9aea b43d d154 a3bc 0e63 87bc 3c3b 5e3d
000001b0: 4b1e 013e 449c e43d a268 6b3e 79d1 fb3c
000001c0: 724c c4bd 0801 813c b415 c2bd e904 6d3d
000001d0: f6a4 d63c 431d d93d 8068 1f3e 3521 203d
000001e0: df11 1b3d 10da 383c 63b9 c23d 50ea 07be
000001f0: e918 3b3e d868 2ebe 0c35 9ebd c7f8 ba3c
00000200: 4db8 ae3c 32eb 093e 823c fdbd 0dff de3d
00000210: c1be c23d 72ce b9bd 6940 2a3c 7d03 64bd
00000220: 9854 fbbc b253 f2bc b589 07bd afd5 58bd
00000230: ded5 023e cc5b dbbc bb00 0fbe 970d c33c
00000240: 59a9 99bc 7c13 bbbc 7e50 52be f8a3 9cbd
00000250: e73b 97bb 940c d03d 331d a23d 5e6d 7f3b
00000260: 6881 8dbd 0916 6cbd 1c39 0bbe 42d6 b33d
00000270: e3fc a8bc 86c9 363d 0c27 873d 83d5 c93d
00000280: 351f 19be 7ffe 7b3d 325a 87bd e7dc 84bd
00000290: b197 b3bd 56a7 6cbd f9ca 02bd 9475 b8bd
000002a0: 3dae 993d 4438 1bbd a9cd 3abd df22 e23a
000002b0: f2ed 793d b7c9 b4bd e6a8 a53d 7c57 e2bd
000002c0: 89e3 13be 552a f93d f399 333c a502 0abd
000002d0: 748d 123e 8323 06bd e488 23bb a646 4f3e
000002e0: 567e 393e e71d 8dbb 68d9 123e 7067 e23d
000002f0: ee31 43be 4b38 44be 59eb 4e3c 7a55 16be
00000300: 763c 99bc de35 2cbd fb1d 433e 362a 47bd
00000310: 68d8 7dbd fe26 01bd e258 2ebd 27c9 cc3d
00000320: 94fa 123d 928c ecbc 1a48 0cbd 1662 af3c
00000330: f5b4 ac3d c2c8 29be 2bd7 f4bd 9848 8cbd
00000340: aad9 6839 4a16 66ba 2ca0 5abe dc58 8cbc
00000350: 1f26 5c3e edb8 72bd fabc dcbd 867b 28be
00000360: 0f2a 3a3d ac61 c8bd 465c 713b a42f 8c3c
00000370: f44f f8bd b54d dc3d bcf4 6c3d 4a27 85bd
00000380: ea94 6a3d 94a0 433c abe0 533d febc 6f3c
00000390: 6426 963c 1ae2 353e 65b6 19be 8e73 47bd
000003a0: 2ab3 25bd c73d 49bd c42d 5fb9 3174 04bd
000003b0: ddb2 173e 5b51 7e3d 4015 863e 98ea e8bc
000003c0: 8922 42bd 8942 e0bc 3fde 84bd a225 92bc
000003d0: 3776 c73b b2b1 763d 965e 283e 3d01 0bbd
000003e0: b196 643c 57b0 e63d fad3 843c 8916 cdbc
000003f0: 72cf 173e d413 73be 1877 03bc 186b 043e

fc.bias f4 [10]
-0.29065043 -0.39739636 -0.24856587 0.017411126 0.31813008 0.65649605 0.31913313 0.079843074
-0.17363188 -0.2934116
00000000: 22d0 94be 8977 cbbe 0d88 7ebe c7a1 8e3c
00000010: f2e1 a23e 2010 283f 6b65 a33e c484 a33d
00000020: 8ecc 31be 0c3a 96be
