model.pth (torch, 288031 bytes, 6 tensors)

lstm.weight_ih_l0 f4 [512, 7]
000000 85 4d f1 bc 92 02 a4 3d 09 a9 b4 bc a6 b5 aa 3d
       -0.02945591 0.08008303 -0.022053258 0.08335428
000010 97 4a 0f 3d 62 98 39 bd c9 01 f2 3c e1 be a5 bd
       0.034983244 -0.04531134 0.029541867 -0.08093048
000020 e5 c0 8b bc 56 7d a4 3d a6 c1 78 3d 17 a4 16 3e
       -0.017059753 0.080317184 0.060731553 0.14711033
000030 e6 da ad 3d 0b f5 ef 3c 0e 34 d2 3d 18 ed 76 3b
       0.08489017 0.02929165 0.10263835 0.003767794
000040 1d e9 c7 bb 06 d3 d9 3c 0d 70 fa 3d 02 dd 6d bc
       -0.0061007873 0.026589882 0.12228403 -0.014518024
000050 7f dc a5 3d f0 92 dc 3d f8 03 6f 3d e9 84 e7 3c
       0.08098697 0.107702136 0.058353394 0.028261619
000060 38 33 a7 3c 7e 5e 04 3e 8b 38 b4 3d ae 22 86 3d
       0.020410165 0.12926671 0.08799847 0.065495834
000070 4b 97 5d 3c 61 f0 81 bd ba e8 e9 bc 58 ce dd bc
       0.013524841 -0.06344677 -0.028553355 -0.027075931
000080 8f 77 42 3d f9 82 92 bd 96 78 42 bd 5a 58 c5 3d
       0.0474773 -0.07153887 -0.04747828 0.09635992
000090 0f 36 66 3c fa 0f ad bd 8e 7f 8c 3b bf 50 d4 3d
       0.0140509745 -0.08450313 0.0042876666 0.103669636
0000a0 d7 57 ed bc a8 ec 6e 3c 45 d3 26 bd 2b 42 be 3c
       -0.02897255 0.01458279 -0.040728826 0.02322491
0000b0 4e 33 80 3d 22 89 ae 3d 4a f8 09 3d 5a 18 6e bd
       0.062597856 0.0852225 0.033684053 -0.058128692
0000c0 99 d6 93 bd c9 e4 a0 bc c3 da 26 bd b1 99 02 bd
       -0.07218666 -0.019640343 -0.04073597 -0.031884853
0000d0 f2 cd 52 3d 8c 72 b1 3d e9 7c b9 bc 75 d6 51 3d
       0.051465936 0.08664426 -0.02264257 0.051229913
0000e0 b4 7a b3 bd 50 8a 08 bd 97 91 60 3d d4 15 85 bc
       -0.08763638 -0.03333503 0.054826345 -0.01624576
0000f0 70 14 9b bd 65 67 f1 ba c9 82 df 3c 21 72 ba 3d
       -0.075722575 -0.0018417655 0.027284043 0.091037996
000100 89 95 a1 ba 62 dd 9c bc a6 8b a3 3c 71 75 42 3c
       -0.001232789 -0.019148532 0.01996405 0.0118688205
000110 61 61 49 bd da 2a 97 3c ec eb a6 bd 47 32 87 3d
       -0.049165133 0.01845305 -0.08150467 0.066013865
000120 f1 70 71 3d 25 35 9f bd e4 b4 e4 3c cf 61 9f 3a
       0.0589456 -0.077738084 0.027918287 0.0012159887
000130 8d df df bb 7e 45 3f bd be c5 ec ba 78 9e 5b 3d
       -0.0068320693 -0.046697132 -0.0018064303 0.053617924
000140 66 40 34 bd d0 e1 11 bc 73 20 a1 3d 42 c2 61 bd
       -0.044006728 -0.008903936 0.07867517 -0.0551169
000150 48 d3 26 3d d7 f9 51 bc cb de f2 bc 3c 02 3a 3c
       0.040728837 -0.012815914 -0.029647252 0.011353072
000160 08 e8 0b 3d 1a 68 e5 3a 8f 6f d8 3d 6f 6f 80 3c
       0.03415683 0.0017502338 0.10568153 0.015678136
000170 9c 64 3b 3d c3 29 64 bc d2 90 0b bd 23 c3 9b bd
       0.045750245 -0.013925972 -0.03407366 -0.07605579
000180 b3 f7 9f bd d3 ad 44 3c ee 93 b3 3d 22 a1 e2 3a
       -0.07810917 0.012004334 0.0876845 0.0017290453
000190 58 c8 5c 3c 57 04 44 ba 6f 58 e5 bd 3f fd d1 3d
       0.0134755 -0.00074774533 -0.11198508 0.10253381
0001a0 53 dc 80 bd da 58 eb bd eb c9 80 bb c5 4e 4f 3d
       -0.062920235 -0.114915565 -0.0039303205 0.05061223
0001b0 e8 d6 b4 bc 8f c8 3e 3d 27 25 ad bd d9 25 d6 3d
       -0.022075132 0.046577986 -0.08454352 0.104564376
0001c0 59 a3 95 bd 94 1c c1 3d 05 07 e5 bc e8 35 e3 bb
       -0.07306547 0.09429279 -0.027957449 -0.0069339164
0001d0 28 d2 93 3d 55 9d 19 be c1 27 9e 3d ab a5 46 bd
       0.072178185 -0.15001424 0.07722426 -0.048497837
0001e0 95 dc 79 bd 02 26 64 3d ba 50 b6 3c a5 1b 03 bd
       -0.06100138 0.05570031 0.02225529 -0.032008786
0001f0 0e 61 27 3b df 0f 48 bd 45 38 ca bd ad dc db 3d
       0.0025540027 -0.04884326 -0.09874014 0.1073545
000200 9e 72 a2 3c f0 9b ac 3b 9f 1b 8e bd 1d 3a 5c 3e
       0.019830044 0.0052676126 -0.06938862 0.21506543
000210 a6 b2 be 3b 79 44 b8 3c bb 51 ed 3c b2 e0 02 bd
       0.0058196364 0.022493588 0.028969636 -0.031952567
000220 fd ab bc 3c 65 f0 93 bd 3e 92 a2 3d 33 07 c8 3d
       0.02303123 -0.07223586 0.0793805 0.09766998
000230 b2 eb ca bd 67 e8 2d bd 80 99 79 3d 7f 6a 58 bb
       -0.099082366 -0.042457964 0.060937405 -0.003302246
000240 08 63 3f 3d 35 2e fa bc 61 7e c3 bd bf 4c 6a 3d
       0.046725303 -0.030539611 -0.09545589 0.057202097
000250 e3 62 32 3d 41 c1 9d 3d 06 19 aa 3d b4 0a be 3d
       0.043551337 0.07702876 0.08305554 0.09279385
000260 03 82 03 3d 1e 98 fb 3d 91 f9 18 3e 99 c3 1c 3d
       0.03210641 0.122848734 0.14938952 0.038272474
000270 3f 46 dc 3c af 95 e6 ba ff 86 fb bd 90 72 db bd
       0.026888965 -0.0017592217 -0.12281608 -0.107152104
000280 f3 1a 09 3e 2a 0b 80 bc b8 25 1a bd f9 1d 38 bd
       0.13389187 -0.015630323 -0.037633628 -0.04495046
000290 32 8d f3 bb 92 14 01 3e c8 87 2a 3c 7e 11 a7 3c
       -0.0074326033 0.12605503 0.010408349 0.020394083
0002a0 ab a4 aa 3d be 46 b0 bc 74 fa 94 3d ab 7e 76 3d
       0.08332189 -0.021518108 0.07274333 0.060179394
0002b0 ec 90 e6 3b 6e 74 a6 bd c5 86 32 bb ed a3 d4 3c
       0.007036319 -0.08127676 -0.0027240973 0.025957072
0002c0 cd b8 03 bc fd 1a f4 3b 4c f5 9a 3d 1f d8 c3 bc
       -0.008039665 0.0074495063 0.07566318 -0.023906766
0002d0 e2 30 07 3d a6 b9 ce bd 9e 03 36 3d 46 75 c7 bc
       0.033005603 -0.100940034 0.044437043 -0.024347913
0002e0 d9 92 ef bc 63 6a 79 3d 10 5e 25 bd d8 ea 7b bc
       -0.029244827 0.060892474 -0.040372908 -0.015375815
0002f0 ca 5f 97 3d df 73 a5 3d 16 7f 85 bc 64 5d aa 3d
       0.07391317 0.08078741 -0.01629595 0.08318594
000300 13 b1 15 bd ff d1 df 3b f3 c9 9a 3d f6 77 92 bd
       -0.036545824 0.0068304534 0.0755805 -0.07151787
000310 e3 5e a8 3d 26 cf 2c 3d 96 51 26 3d 06 13 04 3d
       0.08221223 0.04218974 0.04060515 0.032244705
000320 c8 8b 84 3d f1 69 f4 bc 31 de e4 3d 2d 6d 74 bd
       0.06471974 -0.029835673 0.11175192 -0.05967443
000330 68 24 55 3d cf e6 92 3d 35 cf b9 3c dc 43 a1 3d
       0.052036673 0.071729295 0.022681812 0.07874271
000340 4f d5 58 bd 0d c7 a1 bb d1 0f fe 3c 21 51 8e 3d
       -0.052937802 -0.004937059 0.031013401 0.06949068
000350 5d 4c a7 bd 2f 79 ad 3d 01 7d a7 3d 87 6a a8 bd
       -0.08168862 0.084703796 0.081781395 -0.082234435
000360 27 11 85 39 56 2b 83 3d f4 9e 65 ba 46 24 cc ba
       0.00025380516 0.0640475 -0.00087593426 -0.0015574775
000370 3a 3b 2c bd df 48 ad bd fd bf 90 bd 34 0f b4 3c
       -0.04204867 -0.08461165 -0.07067869 0.021979906
000380 22 2b 92 bd a9 4c a1 bb 3c 90 92 3c 61 33 d7 3d
       -0.07137133 -0.0049224687 0.017891042 0.105078466
000390 f3 ae cc 3d 0d 07 75 3d fd 88 b6 3b dc aa 72 bb
       0.099943064 0.059821177 0.0055705295 -0.003702811
0003a0 32 47 a1 3d 1a 3c 1c 3b d6 c8 6c 3d e8 17 02 3d
       0.078749076 0.0023839534 0.05780872 0.03176108
0003b0 67 20 b3 3b b3 75 03 3e f5 cc 87 3b 5d da c4 3b
       0.005466509 0.12837867 0.004144306 0.0060074762
0003c0 79 e2 33 bc 29 ea 52 bd 24 2d ba bd 3d 2e a0 3d
       -0.010979288 -0.051492844 -0.09090641 0.07821319
0003d0 71 cf 51 bd 34 e6 2f 3d 2c 07 85 3d cf 36 d4 3c
       -0.051223222 0.04294415 0.064955086 0.025905041
0003e0 39 f3 f5 3b f1 5a 75 3e 98 b4 ee 3b 94 4d 20 be
       0.007505801 0.23960473 0.007284712 -0.15654594
0003f0 a4 7f 11 bc 20 37 97 3d a0 28 64 bc eb 2c cb bd
       -0.00888053 0.07383561 -0.013925701 -0.09920677

lstm.weight_hh_l0 f4 [512, 128]
000000 93 6a b1 bd 70 5e 0a bd 78 32 13 bc 77 fe 9b 3d
       -0.086629055 -0.03378147 -0.008984201 0.07616895
000010 c4 74 d6 3c 5f 51 99 3d e0 d7 89 bc 5f d1 9b 3d
       0.026178725 0.074862234 -0.01682657 0.07608294
000020 f3 f2 b4 3d a1 35 74 bd e6 39 27 3d 2c 3b 36 bd
       0.088354014 -0.059621457 0.0408267 -0.044490024
000030 bc ff b1 bd 30 3b a2 bd 68 44 91 bc 3d 0e a6 3d
       -0.086913556 -0.07921445 -0.017732814 0.081081845
000040 90 db 15 bc 4b 14 a9 bd 9f 6c 83 3d 84 5e dd 3c
       -0.009146586 -0.08255824 0.06417202 0.027022608
000050 7a 32 16 bd a9 1f 73 bd 76 02 27 bd 28 ac 1a bc
       -0.036669232 -0.059356365 -0.04077383 -0.009440459
000060 10 9d a7 bd aa c6 1c 3d da 91 38 3d 84 fd a8 bd
       -0.08184254 0.0382754 0.04506097 -0.08251479
000070 f0 ad f2 bc 45 4f b2 3d bc 77 c8 3c 04 ff b1 bd
       -0.029623955 0.08706526 0.024471156 -0.086912185
000080 20 52 92 bd 7c 4a d8 3c 50 a6 ea 3b a3 2a 9a 3d
       -0.0714457 0.026402704 0.0071609393 0.075276636
000090 b0 f6 d3 3b 1a a0 21 3d a2 c0 2c bd c5 42 98 bd
       0.0064686164 0.039459325 -0.042175896 -0.0743461
0000a0 16 22 7a bd 00 f0 f2 38 c0 de ef 3b f7 18 b4 3d
       -0.061067663 0.00011584163 0.007320255 0.08793824
0000b0 47 60 28 bd 02 05 38 3d e5 c6 37 bd 40 9f 48 bb
       -0.041107442 0.04492665 -0.044867415 -0.0030612499
0000c0 0f e3 98 3d 99 ae 87 3d 1c 89 d2 bc 3a b7 3b 3d
       0.07465183 0.06625099 -0.025700144 0.045829035
0000d0 86 7f 5d 3d 00 20 bc bc 00 b5 05 3a 38 a0 fd 3c
       0.054076694 -0.022964478 0.00051005185 0.030960187
0000e0 78 18 0c 3c 1d 7c 8b 3d f8 83 df 3c 48 8c 9d bc
       0.008550756 0.06810782 0.027284607 -0.01923193
0000f0 d9 08 2b bd 23 7b b3 3d 80 76 1f bc 88 99 d7 3c
       -0.041756485 0.08763721 -0.009732842 0.026318327
000100 ed 90 aa 3d cd a1 a7 bd e2 18 28 3d c0 3a b3 bd
       0.08328424 -0.08185158 0.041039355 -0.0875144
000110 8b f3 85 3d 5d 57 a3 3d e8 dd 1c bc 90 26 43 bc
       0.06540593 0.079756476 -0.009574391 -0.0119110495
000120 f4 8e 7b bd 03 10 2c bd 00 a6 43 3c 84 e8 b2 bd
       -0.061415628 -0.042007457 0.011941433 -0.08735755
000130 05 22 96 3d 28 ea 80 bc 60 82 65 bb d4 d6 2a bd
       0.073307075 -0.015736654 -0.0035020337 -0.041708782
000140 73 83 8e 3d 0d 5d 39 bd 4a 84 75 3d 5a 3e 56 bd
       0.06958666 -0.045254756 0.059940614 -0.052305557
000150 30 1e 20 bc 52 39 88 bd 07 58 b1 bd d2 12 3a 3d
       -0.009772822 -0.06651558 -0.08659368 0.045428105
000160 fe df 79 bd 0a 09 ae bd 56 f2 24 3d f3 fd 91 3d
       -0.06100463 -0.08497818 0.040270172 0.07128515
000170 67 ac 8e 3d c0 66 d1 3b c9 0c 86 bd 50 c3 a0 bb
       0.06966477 0.0063904226 -0.06545407 -0.0049060956
000180 25 26 9a 3d 4d 6d 85 bd fc a9 c0 3c 9d 34 83 3d
       0.07526807 -0.06514988 0.023518555 0.064065196
000190 80 a5 d1 3b 16 29 48 3d 20 2d 90 bb 17 82 69 bd
       0.006397903 0.048867308 -0.0043999106 -0.05700883
0001a0 25 db 8b 3d 38 6b ab 3c 7c c3 fd 3c 80 97 64 ba
       0.06828908 0.02092515 0.030977003 -0.0008720085
0001b0 ee a9 65 bd ac 70 cb bc 58 2f 2c bc 43 a0 95 3d
       -0.05607026 -0.024834 -0.0105093345 0.07305958
0001c0 e0 27 ab bb 39 42 90 3d 42 79 25 3d 10 97 72 bc
       -0.0052232593 0.07043881 0.040398844 -0.014806524
0001d0 24 19 c3 bc da c8 01 3d 2b f4 12 bd f3 8d a3 3d
       -0.023815699 0.031685688 -0.035877388 0.07986059
0001e0 f6 83 6a 3d cc 8d a8 3c 20 dc ba bb d6 ee 7c bd
       0.057254754 0.020575427 -0.0057025105 -0.06175121
0001f0 c5 16 a3 3d 16 4f 94 bd a4 dc 98 bc 4b ab 3e bd
       0.07963327 -0.07241647 -0.018659897 -0.046550076
000200 a1 32 a5 3d c4 89 9d 3c ea 5b 25 3d c0 8c 20 3c
       0.08066297 0.01923073 0.04037086 0.009799182
000210 c0 27 7b bd db 1d 2a bd c0 9b c5 3b b4 42 34 bd
       -0.061317205 -0.04153238 0.0060305297 -0.044008926
000220 5b 50 a3 3d 47 ff 95 3d d3 4e 21 bd a1 8d 98 3d
       0.07974311 0.07324081 -0.039381813 0.074488886
000230 92 54 75 bd de ef 96 bd f8 01 76 bc ee 83 7e 3d
       -0.059895106 -0.0736997 -0.015015118 0.062137537
000240 b4 df c4 3c c8 3d 71 bc d1 7c 91 bd 00 f0 66 3b
       0.024032451 -0.014724202 -0.07103885 0.0035238266
000250 d9 8e 54 bd 38 f5 68 3c 28 a4 b6 3c 98 37 33 bc
       -0.051894043 0.014218621 0.022295073 -0.010938548
000260 75 64 2a bd 74 35 b4 bc 02 b5 66 3d d6 7a 36 3d
       -0.04159971 -0.021998145 0.056324966 0.04455074
000270 40 8e f4 bb 80 e3 ed 3a b4 7c 97 bc bf 54 1d bd
       -0.0074632466 0.0018149465 -0.01849208 -0.0384109
000280 d1 41 81 3d c3 93 92 3d e9 93 52 bd bf 35 0c bd
       0.063113816 0.071570896 -0.05141059 -0.034230944
000290 17 c9 a0 3d d0 82 10 3d 7e 07 44 3d 90 da 31 bd
       0.07850855 0.035281003 0.047858708 -0.043421328
0002a0 13 98 2a bd da 69 f7 bc 9f 08 08 bd af 06 24 bd
       -0.041648936 -0.030201841 -0.033211347 -0.040045436
0002b0 bd ed 91 3d 7a b0 20 bd a5 7b a1 bd f1 57 03 bd
       0.07125423 -0.0392308 -0.078849114 -0.03206629
0002c0 60 cc 39 bd e0 ba f1 3c 39 58 95 3d 25 6c 00 bd
       -0.045360923 0.029508054 0.07292218 -0.031353135
0002d0 da 39 ac bd 66 55 77 3d c2 dd 8a bd 45 ff 23 bd
       -0.08409472 0.060384177 -0.06780578 -0.040038366
0002e0 48 a9 37 3c f4 38 9b 3c 16 ba a3 bd 48 2c 8c 3c
       0.011209793 0.018948056 -0.079944775 0.017110959
0002f0 28 51 d0 bc 0c d9 f2 bc 40 00 f0 bb 12 e3 72 bd
       -0.025429323 -0.029644512 -0.0073242486 -0.059298582
000300 a1 1f ab bd 80 44 bb 3a 6a a5 3c bd 44 ab e8 3c
       -0.08355642 0.0014287382 -0.04605619 0.028401978
000310 2b f2 a9 bd 8d 21 b3 3d 20 19 75 3c 47 af 99 bd
       -0.08298143 0.08746634 0.014959604 -0.075041346
000320 3d f5 49 bd d1 cc a0 bd 5c 2a a7 bd 42 da 5e 3d
       -0.049306143 -0.07851566 -0.08162376 0.054407366
000330 b0 8f e1 bc 56 a0 87 bd 7c 6f d1 3c e7 ad 8d bd
       -0.027534336 -0.066223785 0.025565855 -0.06917935
000340 8c da 93 bc c1 d3 aa bd f1 41 89 3d fc 0f af bc
       -0.018048547 -0.0834117 0.067020305 -0.021369927
000350 aa 97 61 3d cd 52 88 3d 5e 7a 6c 3d 2e f1 93 bd
       0.05507628 0.06656418 0.057733886 -0.07223736
000360 36 b6 70 bd d0 8d 5e bd 0c 84 49 bd 40 a1 09 3d
       -0.05876752 -0.05433446 -0.049198195 0.033601046
000370 f8 81 6e 3c 2a 5e f3 bc d4 5f a0 3c a5 87 43 bd
       0.014557354 -0.029707987 0.019576944 -0.047736783
000380 bd bf a2 3d 5c e9 89 bc 41 cf 94 3d 50 f3 82 bd
       0.079467274 -0.016834907 0.07266093 -0.063940644
000390 fa 97 74 3d 7e 8f 2d 3d 89 58 ab bd 8c 21 a0 bd
       0.05971525 0.042373173 -0.08366496 -0.078188986
0003a0 ac b1 81 bd cc 1c 60 bd 0c 45 b9 bc 60 00 e9 bb
       -0.06332716 -0.054714963 -0.022615932 -0.0071106404
0003b0 6e 1d 56 3d 41 d0 61 bd 94 29 ee 3c fe b9 13 bd
       0.05227416 -0.055130247 0.02907256 -0.036066048
0003c0 98 96 07 3c 08 82 3b 3c af a1 91 3d c7 d9 8d 3d
       0.00827565 0.011444576 0.07110917 0.06926303
0003d0 ef d3 9e bd 00 f1 24 3c 7a f7 00 3d bb ea 49 bd
       -0.07755267 0.0100672245 0.031486012 -0.049296122
0003e0 86 6e a3 bd 72 32 78 3d f2 30 7d 3d 50 3b cc bc
       -0.07980065 0.060594983 0.061814256 -0.024930626
0003f0 0e 7c 48 3d 5b 36 96 3d 60 fa b5 bb 0a 0c f1 bc
       0.048946433 0.07334586 -0.0055535287 -0.029424686

lstm.bias_ih_l0 f4 [512]
000000 c9 35 d8 3a ab d5 3f bd a5 4e 8b bb b2 87 7b bc
       0.0016495521 -0.04683463 -0.0042513185 -0.0153521765
000010 81 66 15 bc e3 dd c0 3c 99 c0 02 bb 92 ca 07 b9
       -0.009118677 0.023543304 -0.0019951223 -0.00012950067
000020 de 27 05 bd e6 72 c5 bb 4e b1 ad bc 58 4e 9e bd
       -0.032508723 -0.00602566 -0.02120271 -0.07729787
000030 8b 8c ec 3c 21 55 b5 3d 6f dc c4 3d 99 d6 22 bb
       0.02887561 0.08854128 0.09612357 -0.0024847148
000040 fe 05 d4 bc 7c 00 79 3c ef 84 e8 bc 24 45 a3 3d
       -0.025881764 0.015197869 -0.0283837 0.07972172
000050 14 e1 16 3c da d6 cd 3c 0e 1d 10 3d 02 10 83 bd
       0.009208936 0.025126863 0.03518396 -0.063995376
000060 ee 51 25 bd 76 71 7c bd ad 95 e9 bc bd d9 78 3d
       -0.040361337 -0.061631642 -0.028513754 0.060754526
000070 b6 2f 8a bd 8a dc fc bc 53 89 a4 3c 48 eb 5d 3d
       -0.067473814 -0.03086688 0.020085013 0.05417946
000080 f0 7a 4e bd f0 fc 77 bd 77 a8 50 bd a2 5a e2 bb
       -0.05041021 -0.060543954 -0.05094191 -0.006907777
000090 1b 30 47 bd 39 a2 84 bd 8c 38 ff 3c 6e 56 c8 bc
       -0.04862986 -0.06476254 0.031154893 -0.024455275
0000a0 d3 7b 94 3c fc 85 61 3c de 1e 84 bd cf 2e 3d bd
       0.01812545 0.0137648545 -0.064512 -0.04618722
0000b0 55 a5 1a 3d 32 e0 7e 3d 87 02 cc 3d 2f 07 9a 3d
       0.03775533 0.062225528 0.099614196 0.075209014
0000c0 85 bb c1 bc c2 37 86 bd c2 67 dc 3c 36 5c 78 3d
       -0.023648987 -0.06553604 0.026904944 0.060634814
0000d0 2c 70 9d 3d 0b d3 3c 3d d5 d5 ae 3d e8 ec 8a bd
       0.07687411 0.046099704 0.08536879 -0.067834675
0000e0 da 51 9e 3d 0a 22 ff bc 84 84 09 3d 74 20 57 3c
       0.07730456 -0.03114416 0.033573642 0.013130296
0000f0 f2 a5 2b bd d8 79 bd 3b 31 23 86 3c d4 03 5c bb
       -0.041906305 0.005782347 0.016374202 -0.0033571618
000100 d4 fc 8b bd 8b cf 1f bd fe 90 54 bc 03 0b 6f 3d
       -0.068353325 -0.039016288 -0.012974022 0.05836011
000110 63 c2 6b 3d e1 d2 2d bd 1d d7 e8 bc b3 a5 03 3d
       0.05755843 -0.042437438 -0.028422887 0.032140445
000120 72 85 fd 3c f5 2f 90 3c 86 91 88 3d 3c 1c 22 bd
       0.03094742 0.017600993 0.066683814 -0.039577708
000130 4c 2e 0b 3d 80 1e 42 bd 3f 1a 03 3c c7 87 5f 3d
       0.0339797 -0.04739237 0.008001863 0.054572847
000140 18 26 e0 3c 74 3f 64 bd 43 35 2b bd f1 81 07 bd
       0.027361915 -0.055724576 -0.04179884 -0.033082906
000150 c5 cf 63 bd b9 25 e0 bc 93 44 25 3d ef eb cc bc
       -0.055618066 -0.027361738 0.0403486 -0.025014846
000160 f5 92 a7 3d 30 1b 9c 3d d1 e6 91 bd 2a be 3a bc
       0.08182327 0.07622373 -0.07124103 -0.011397878
000170 41 0f 71 3c 0e 5c 41 bc 60 92 b7 bd 6c aa 7f bd
       0.0147131095 -0.011801733 -0.08963466 -0.062418386
000180 9c 1a f4 bc 70 d3 a9 3d 2d 85 0e bd e0 b1 95 bc
       -0.029797845 0.08292282 -0.034794975 -0.018273294
000190 b7 9e a9 bc 63 50 7d bd e1 f6 23 3d 6d 4d 7c 3d
       -0.020705564 -0.06184424 0.040030364 0.061597276
0001a0 fc 66 ad bc 56 e7 fc 3c 98 f0 6b 3d cd ca 96 bd
       -0.02116727 0.030872028 0.057602495 -0.073629
0001b0 45 31 50 3d b9 20 9d bc 18 57 e0 3b 3b c8 77 bd
       0.050828237 -0.019180642 0.00684632 -0.06049369
0001c0 48 e6 4d bd 9f 4c b4 3d bd 51 85 3c 38 bb af bd
       -0.05026844 0.08803677 0.016274327 -0.08580631
0001d0 11 1b 74 bd 13 3d 99 3d 2b 09 a6 3c ef 1f 9d 3d
       -0.059596125 0.07482352 0.020268044 0.076721065
0001e0 a1 7e b0 3d cc 57 ac bd a0 aa cc 3c b3 b1 b0 3d
       0.086179025 -0.084151834 0.024983704 0.086276434
0001f0 47 a7 58 bb ad 23 5f bd 99 ba 53 bd aa 8f 4c 3d
       -0.003305869 -0.054477382 -0.051691625 0.049941696
000200 d8 3f 7d bc 25 2e 84 3d 3a a9 f2 bc 42 1e 7b 3d
       -0.015457116 0.06454114 -0.02962171 0.061308153
000210 9c 36 ab bd bc 55 de 3c 50 f9 c4 3b 90 7b d3 3c
       -0.08360025 0.02714049 0.0060111657 0.025815755
000220 8e 78 18 3d 08 47 a4 bd 9b d4 84 3d 91 2b 83 3d
       0.037224345 -0.08021361 0.06485864 0.06404794
000230 80 c6 09 3b 13 a9 b3 3d 4c 59 ad bd 7c a7 a2 bc
       0.0021022856 0.08772483 -0.08464298 -0.019855253
000240 aa 20 3d 3d db a5 a7 bd c7 5f 8d 3d 98 ab 85 bd
       0.04617373 -0.08185931 0.06903034 -0.065268695
000250 9a 43 3c bd 8b c4 b2 3d c0 ec b6 3c 05 3b 83 bd
       -0.045962907 0.08728894 0.022329688 -0.064077415
000260 40 ed e0 3c f8 09 be bc 18 a9 07 3c 5d 86 a7 3d
       0.02745688 -0.023198113 0.008280061 0.08179925
000270 08 7a 03 3d a0 ff cd 3c cd 6a 91 bd 53 5c 17 bd
       0.0320988 0.025146306 -0.07100449 -0.03695328
000280 80 47 21 bd 6f fb 8f 3d d0 4b b8 3b 82 18 89 bd
       -0.03937483 0.07030379 0.005624272 -0.066941276
000290 1b 23 23 bd d0 78 7d 3c 8e b4 48 3d ef 28 83 3d
       -0.0398284 0.0154706985 0.049000315 0.06404292
0002a0 42 3d 17 3d 33 2d 24 bd 80 dc 3d 3c 25 1b 86 bd
       0.036923654 -0.040082168 0.011588216 -0.06548146
0002b0 23 13 17 bd 60 25 68 3b ba 67 76 3d 24 7c 8f 3c
       -0.036883485 0.0035422668 0.060157515 0.01751525
0002c0 8a 70 e3 bc 18 a1 fb 3c 6a a4 76 bd 94 e4 a9 bd
       -0.027763624 0.030716464 -0.06021539 -0.08295551
0002d0 62 58 4c 3d 00 85 ce 3c df 9b 81 3d 3a 39 6f bd
       0.049888976 0.025209904 0.06328558 -0.058404185
0002e0 6b 7f af 3d c2 36 4e bd 6a 02 35 3d 76 6f 57 3d
       0.08569225 -0.05034519 0.044191755 0.05259653
0002f0 4e 11 49 3d 09 79 aa 3d 8d 6a 4c bd 54 43 9d bc
       0.04908877 0.08323867 -0.049906302 -0.019197144
000300 a5 f1 9e 3d ff 38 7f bd fc a0 f7 bc c0 5e 59 bd
       0.07760934 -0.062310215 -0.03022813 -0.053068876
000310 90 9f 34 3c 32 09 6d 3d db 6d 99 3d 1c b4 b6 bc
       0.011024371 0.057870097 0.074916564 -0.02230268
000320 24 ba 38 bd e8 5a b8 bc 73 05 a2 3d 66 e9 14 bd
       -0.045099393 -0.022504285 0.079111956 -0.0363554
000330 9f 44 ab 3d 50 71 d7 bc 43 79 80 3d ac 6a 89 bd
       0.08362698 -0.026299149 0.06273129 -0.06709799
000340 27 83 ab 3d 46 83 41 3d 5a 8a 7b 3d a0 71 48 bb
       0.08374625 0.047244333 0.06141124 -0.0030585304
000350 c6 37 5d bd b8 5f b1 bd d2 58 19 3d b5 19 82 3d
       -0.054008268 -0.08660835 0.03743822 0.063525595
000360 ee 1d b3 bd 08 39 09 bd 15 30 b4 bd f0 a2 8f bb
       -0.08745943 -0.033501655 -0.087982334 -0.0043834373
000370 40 32 f5 3c b8 cf 14 bd c0 d1 9e 3b 04 6d e1 3c
       0.029931188 -0.03633091 0.0048467815 0.027517803
000380 47 f3 a1 3d cc f0 e6 3c 64 89 9a bd 34 7e ab bc
       0.079077296 0.028190993 -0.075457364 -0.020934202
000390 90 e0 98 3b 5a 38 b1 bd 20 d8 c0 bc 2a 06 2d 3d
       0.004665442 -0.08653326 -0.023540556 0.042242207
0003a0 40 63 2b 3b 10 14 68 bd a2 31 7b 3d 40 32 f2 3a
       0.0026151687 -0.056659758 0.06132663 0.001847811
0003b0 e6 48 02 3d 8f ce 62 bd 91 55 9b 3d d7 ba b2 bd
       0.031807803 -0.05537277 0.0758468 -0.08727043
0003c0 29 5a 9a bd 70 9c 47 3c ae 8b b1 bd 00 34 25 bd
       -0.07536728 0.012183294 -0.0866922 -0.040332794
0003d0 54 1b c6 bc f6 51 79 3d 39 14 a1 3d e0 3a 36 bb
       -0.024182953 0.06086918 0.07865185 -0.0027806088
0003e0 10 86 d7 bb 98 29 bf 3c ce f6 2f 3d d1 26 56 bd
       -0.006577261 0.023335263 0.04295998 -0.052283112
0003f0 1e 10 61 3d 6c 54 9c bd 00 61 02 3c 42 cd 33 3d
       0.05494701 -0.0763329 0.007957697 0.04389692

lstm.bias_hh_l0 f4 [512]
000000 35 ec a5 3c 3f f3 79 bd 96 c9 8e bd 52 49 d9 3b
       0.020254234 -0.061022993 -0.06972043 0.006631055
000010 1f 44 36 bd 05 5e 83 bd 4a 7b 06 bc cf c4 9b bd
       -0.04449856 -0.06414417 -0.008208105 -0.07605898
000020 56 93 49 bd 88 5d 53 bc 54 a1 10 3c 0b e6 b8 bc
       -0.049212776 -0.012900718 0.008827526 -0.02257063
000030 4a 14 05 3b 2e b7 f1 bc e2 b0 db bc d9 44 a5 bc
       0.0020306283 -0.029506292 -0.026817743 -0.02017443
000040 7c 72 a5 3d e1 64 25 3d 51 e1 34 bc f1 7a ac 3c
       0.08078477 0.04037941 -0.011040048 0.021054717
000050 32 cc 9e 3d 08 a4 42 bd 90 40 82 3b 5b b6 63 3d
       0.07753791 -0.047519714 0.0039749816 0.05559383
000060 58 45 91 bd 54 04 a7 3d f4 ca ab bc e2 53 f5 bc
       -0.070933044 0.081551224 -0.020970799 -0.029947225
000070 b6 d6 c6 bc 13 5d 7b 3d b0 c8 2a bd e2 f2 a8 3d
       -0.024272304 0.06136806 -0.041695297 0.08249451
000080 ec 3b 8a 3b 91 b3 be bc 41 e1 e3 bb f4 c6 84 bd
       0.004218569 -0.023278983 -0.0069543426 -0.0648326
000090 f3 59 21 3d 3a 8f 87 bc 7d 9f 2a bd ff 4d 02 bd
       0.039392423 -0.016547788 -0.041656006 -0.031812664
0000a0 c6 4c 35 bb 85 83 9c bc 61 38 99 bb 5e e2 98 bd
       -0.0027664169 -0.019105682 -0.0046759103 -0.07465051
0000b0 bb 35 63 bd 94 9e 0b bd e6 8f 49 3c 4b 0d d2 bc
       -0.055471163 -0.03408678 0.0123023745 -0.025641104
0000c0 24 0c 92 3d 92 49 45 bd f0 c8 5e bd 9e f1 27 3d
       0.07131222 -0.048165865 -0.054390848 0.04100191
0000d0 a0 47 90 3d 87 ed 2f 3d c5 aa 33 bc 7e c7 ac bd
       0.070449114 0.042951133 -0.010966008 -0.084364876
0000e0 33 00 82 bc 97 2f 81 bd ee 96 50 3d 67 ff ea bc
       -0.015869236 -0.06307905 0.050925188 -0.028686238
0000f0 ea 99 b2 3d 1f f9 3a bd 8d a9 62 bd a1 fe 3f 3d
       0.08720763 -0.045647737 -0.055337477 0.046873692
000100 eb 97 4d bd 12 c4 71 3d 8e b3 ab 3d 55 b7 7d bd
       -0.05019371 0.059024878 0.08383857 -0.061942417
000110 1f 6f e9 bc 01 b9 6d 3d 7e 78 21 3d ba bf 3e bd
       -0.02849537 0.05803776 0.03942155 -0.046569563
000120 c4 3a 51 bd 89 57 76 3c 28 aa 05 bd 10 f5 0c bd
       -0.051081434 0.015035518 -0.032632977 -0.034413397
000130 9d 58 97 3d 41 a8 b6 bc ec d4 03 bd 57 61 af bc
       0.073899485 -0.022297027 -0.03218548 -0.02140872
000140 65 14 24 bd 44 10 92 3d 63 87 99 3d 63 06 59 bd
       -0.040058512 0.07132009 0.07496526 -0.052984606
000150 10 ba 77 bc 9d b6 49 bd 52 9e b6 3d a5 84 b2 3c
       -0.015120044 -0.04924642 0.08916916 0.021791765
000160 25 e7 a9 3d 0e d8 a5 3d 2c 7e 5f 3d f8 9a 56 bb
       0.082960404 0.0809785 0.054563686 -0.0032746177
000170 be 87 9e 3d 75 af 8f 3d 63 53 3e 3b d3 17 b2 bc
       0.077407345 0.07015888 0.0029041402 -0.021739876
000180 a6 ee 53 3c 08 de 9e 3d 65 25 bd bc 55 9a 9a bd
       0.012935316 0.07757193 -0.02308912 -0.07548968
000190 a0 e8 6c bb cd 26 2e 3d 3c 28 88 bd 47 9e 0b bd
       -0.0036149397 0.042517472 -0.06648299 -0.034086492
0001a0 0d 49 01 bd 0e ef 16 bd 34 35 23 3d a7 30 d7 3b
       -0.031563807 -0.036849074 0.03984566 0.006567079
0001b0 99 7e cb 3b 5d b8 ac bd cf 12 81 bd bb 94 5f 3d
       0.00621016 -0.08433602 -0.063024156 0.0545852
0001c0 a6 bd 50 bd 02 c6 68 3d 13 84 84 bd 9e 0f 5c 3d
       -0.050962113 0.05682946 -0.06470504 0.05372583
0001d0 ed 51 72 bd cd d8 c6 3c dd 4e 8e bb 8d 69 54 3d
       -0.05916016 0.0242733 -0.0043428973 0.051858474
0001e0 dc 23 59 3c e9 f9 fd 3c 20 83 d4 bc b6 58 88 3c
       0.013253178 0.031002956 -0.025941432 0.016643863
0001f0 0c 22 29 3d de b6 5f bc c4 10 e8 bb 86 1a 59 bd
       0.041292235 -0.013654439 -0.0070820767 -0.05300381
000200 58 c8 bc bc c8 27 93 3c 93 d9 a9 bd f0 52 c5 3b
       -0.02304475 0.017963305 -0.08293452 0.00602185
000210 80 7c 64 3c 40 11 5e 3b 07 2c 95 3d 00 15 a5 3a
       0.013945699 0.0033884794 0.07283788 0.001259476
000220 16 17 6c 3d 20 ea 41 3b 35 c1 a6 3d fa af 56 3d
       0.057639204 0.0029589012 0.0814232 0.052413918
000230 be 6a 3c 3d 5c 41 3a bd f0 0d 98 bb b4 50 81 3c
       0.046000235 -0.045472488 -0.0046403334 0.015785553
000240 10 c1 b8 bb d0 6a 05 3d 02 bd 38 3d ee ae 01 3d
       -0.005638249 0.032572567 0.045102127 0.031660967
000250 00 a6 6f bd c2 a4 92 bd 42 87 98 bd c8 01 6f bd
       -0.05850792 -0.07160331 -0.074476734 -0.058351308
000260 00 10 61 3a 74 86 17 bd bc 6a cd bc 55 0a 04 bd
       0.0008585453 -0.03699346 -0.025075309 -0.032236416
000270 86 3e 64 3d 78 93 6b 3c 91 3a a9 3d 0a 0e a5 bd
       0.05572369 0.014378421 0.08263124 -0.08059318
000280 53 86 8a 3d 42 e7 71 3d 84 7b 8b 3c c0 2a 4d 3c
       0.067639016 0.059058435 0.01702667 0.012522399
000290 41 51 a5 3d a8 22 77 bd 28 cb 2f bc c2 c6 ec bc
       0.080721386 -0.060335785 -0.010729589 -0.028903369
0002a0 24 9a ad bd 7a ab 4b 3d 94 c3 bb bc 20 4c f7 3b
       -0.084766656 0.04972408 -0.022920407 0.0075469166
0002b0 24 70 90 3c c4 d2 9c bd bf 96 81 3d 43 e5 af 3d
       0.017631598 -0.07657388 0.06327581 0.0858865
0002c0 b9 e0 96 bd 5d f9 af 3d 80 47 cb bb c0 1a 46 3b
       -0.07367081 0.08592484 -0.006203592 0.0030228347
0002d0 6e 1c 50 3d 3f db 8a 3d 40 3f f4 bb c0 9c e2 ba
       0.050808363 0.06780099 -0.007453829 -0.0017289147
0002e0 f8 02 eb 3c dc cf 89 bd 3c 30 03 bd 4e 61 68 3d
       0.028687939 -0.06729099 -0.03202842 0.056733422
0002f0 58 cb 96 bd ab 87 94 bd c9 4a 55 bd 3c 2b 92 bc
       -0.073630035 -0.07252439 -0.052073274 -0.017842881
000300 6a 2d 49 3d a6 19 59 3d 2a fd 3e bd 64 52 4c bd
       0.049115576 0.053002976 -0.046628155 -0.04988326
000310 78 29 bc bc fc 27 d9 bc 2f 77 a0 3d e0 4a 5f bc
       -0.022968993 -0.026508324 0.078352325 -0.013628691
000320 66 9c 2f 3d 25 3b a5 bd 5c 71 7a bd ac 02 03 bd
       0.042873763 -0.080679215 -0.061143264 -0.03198497
000330 86 d1 30 3d a4 d1 eb bc f5 cb 74 bd ef eb 9a 3d
       0.043168567 -0.028786488 -0.05976482 0.07564532
000340 cb 1e 50 bd 18 f6 cd 3c 82 df 3b 3d 00 78 ef b8
       -0.050810616 0.02514176 0.04586745 -0.0001141876
000350 88 f0 47 3c ee 7a 73 3d 52 9b 1c bd dc b1 6e bd
       0.012203343 0.059443407 -0.038234062 -0.05827509
000360 11 7b 96 3d d6 2d 01 bd 62 e8 4d 3d e0 0b 3f bb
       0.07347692 -0.031537853 0.050270446 -0.0029151365
000370 8c 2c 9f 3c 16 9b 1f 3d 38 45 b0 bd e0 3c 33 3b
       0.019430421 0.03896626 -0.086069524 0.0027349517
000380 38 3b 65 3c a3 c7 9f 3d 43 95 8f bd f2 2f 46 3d
       0.01399117 0.078017496 -0.07010891 0.048385568
000390 0b 14 97 3d 84 69 af bc ac b6 f6 3c 1a fa dd bc
       0.0737687 -0.021412618 0.030116402 -0.027096797
0003a0 16 29 56 3d 20 e7 c0 bc 7a bb a1 bd 9c 46 96 3c
       0.052285276 -0.023547709 -0.078970864 0.018344216
0003b0 50 6b d2 bc 1f e2 96 3d 80 f8 11 ba b6 60 1f bd
       -0.025685936 0.07367348 -0.00055683404 -0.03891059
0003c0 17 2c 38 bd b4 e8 12 3d 37 d5 15 bd 45 88 a2 3d
       -0.044963922 0.035866454 -0.03658029 0.079361476
0003d0 cc 35 09 3d 40 c6 ab bb 80 0c fd bc 8e ec 47 3d
       0.03349857 -0.005242139 -0.03088975 0.04880958
0003e0 6b 4b 9f bd 7e 8d 51 3d 70 f7 8d bd 76 c3 38 3d
       -0.07778057 0.051160328 -0.069319606 0.04510828
0003f0 ab be 15 bd 7c b5 d1 3c 91 49 97 3d 5e 97 65 bd
       -0.03655879 0.025599234 0.073870786 -0.056052558

fc.weight f4 [10, 128]
000000 da da 16 bd fd c1 b0 be 55 f2 73 be 9d 5f b1 3d
       -0.036829807 -0.34523 -0.23822911 0.08660815
000010 e1 0d 82 bd 82 60 c0 3b 25 f9 93 bd 23 8c 36 3d
       -0.063503034 0.0058708796 -0.07225255 0.04456724
000020 87 f8 d3 3d 0c 58 bd bd 66 8d 32 3e bd 41 6c 3c
       0.10350137 -0.09245309 0.17436752 0.01441997
000030 94 8a 11 3e 88 13 73 3c 4c c6 52 3e b2 be ad 3d
       0.1421302 0.0148362 0.20583457 0.08483638
000040 a7 08 ff bc f6 47 8f bd f1 cd 90 be e3 0b dc bd
       -0.031132055 -0.06996147 -0.2828212 -0.10744455
000050 2f 4c 44 3e 5e 3f 88 3e 61 b3 8f 3e 84 ee 14 be
       0.19169687 0.26610845 0.28066543 -0.14544111
000060 fa bb 35 3d 0b 97 f3 3c cd c0 15 3e 6f 07 05 3e
       0.04436872 0.029735109 0.14624329 0.12991117
000070 94 b6 1a 3e 07 01 10 3e f1 fa 09 3d b7 c7 b4 3d
       0.1510871 0.14062892 0.033686582 0.08827155
000080 2d 17 46 bd 99 a0 40 3e 82 65 75 bd 56 8f e4 be
       -0.048361946 0.18811263 -0.05991126 -0.44640607
000090 4b 81 28 bd 25 07 83 bd 76 ad 23 be 33 60 79 3e
       -0.04113893 -0.06397847 -0.15984139 0.24353103
0000a0 bd c9 b2 3d 22 31 14 be b0 45 68 be 2e ae b5 bc
       0.08729885 -0.14471868 -0.22682834 -0.022177782
0000b0 da 36 30 be 1f 17 32 be b4 d7 95 be 3d 36 8f 3d
       -0.17208424 -0.17391632 -0.2926613 0.06992767
0000c0 fc 06 91 3e ad f7 7c bb 3f 8b 35 3e c3 d5 46 3e
       0.2832564 -0.0038599775 0.177289 0.19417481
0000d0 6c 1b d9 3d e5 9a 00 bd f1 f0 8e 3d 12 5b f1 3d
       0.106009334 -0.03139772 0.0697955 0.117849484
0000e0 0b 84 89 3e 2f f9 bb bd 73 68 05 3e bb 1d 85 bd
       0.26858553 -0.091783874 0.13028125 -0.06499811
0000f0 c4 06 ca 3d e7 66 f7 bd 67 3e 88 3c b1 e6 37 bc
       0.09864572 -0.12080174 0.016631318 -0.011224435
000100 54 84 3d bc 1a da fd bb 22 e4 0a bd 2d 75 be bd
       -0.011567194 -0.007746947 -0.03390897 -0.09299693
000110 e2 3d 2e be 96 43 b1 3c c1 89 59 3e fb 6e 54 3e
       -0.17015794 0.021638673 0.21243955 0.2074546
000120 57 fa bd bb 68 08 13 bd 47 e6 2e 3e 6a d6 a5 3d
       -0.005797665 -0.03589669 0.17080031 0.08097537
000130 ae c8 ab bd 87 f5 37 3e 37 7d 08 3e 04 c1 ef bd
       -0.08387886 0.17964755 0.13329016 -0.11706737
000140 1a f0 4c be 5a 58 d7 bc 37 85 90 3e 1d dc 93 bd
       -0.20013466 -0.026287246 0.28226635 -0.07219718
000150 20 bd 3a 3d 51 40 dc bd af c5 ac 3e 36 20 5f be
       0.04559052 -0.10754455 0.3374457 -0.21789631
000160 c1 e6 31 3e 77 9f 97 be 9d 94 80 3d 92 9a 28 3e
       0.17373182 -0.2961385 0.06278346 0.16465214
000170 19 6c 81 3d 5f fd 2d 3e 5f 24 b2 3e 27 73 9d bd
       0.06319446 0.16991185 0.34793374 -0.07687979
000180 82 92 0f be 62 07 35 be 10 ac 64 3e 91 a4 52 3e
       -0.14020732 -0.17678598 0.22331262 0.2057059
000190 0e b3 f7 bd c3 5e 4b be 3d 1d a4 3b a0 65 2e 3e
       -0.12094699 -0.19860367 0.0050083683 0.17030954
0001a0 95 20 bd bd 51 d6 06 be d1 35 0c 3d 67 c8 13 3e
       -0.0923473 -0.13167693 0.03423101 0.14431916
0001b0 40 93 8c bd 2c 1d 1d bd 89 21 ff 3d 3a 7a 4c bb
       -0.06864023 -0.0383579 0.12457568 -0.0031200782
0001c0 62 7b 36 3e fb e4 92 bd fa f3 3c bd d8 6c 56 3e
       0.17820504 -0.07172581 -0.04613111 0.20939958
0001d0 2a 9a 90 3e 62 78 04 bd 57 a8 c4 bd 33 82 13 3d
       0.28242618 -0.03234137 -0.09602421 0.03601284
0001e0 f2 cb b8 bd b4 87 82 bc f3 e8 48 bc 5b 06 7e 3e
       -0.090232745 -0.015933849 -0.012262571 0.24807112
0001f0 58 4f 9e bc 29 fb 4a 3e 2d a5 bf 3d 84 00 2e be
       -0.019324943 0.19822372 0.09357677 -0.16992384
000200 30 96 ea 3c 5e f9 2d be d8 6b f3 bd 77 f2 96 3e
       0.028636068 -0.16989657 -0.11885804 0.2948186
000210 d8 0d c2 bd 4b ee a3 bd 12 49 34 3d 20 0c 22 be
       -0.09475297 -0.08004435 0.044014998 -0.15824938
000220 65 11 03 3e 85 e4 da bc cd a0 d9 3d 63 d0 93 bd
       0.12799604 -0.026720295 0.106263734 -0.07217481
000230 70 58 aa 3d 32 ef 77 3d 17 55 b7 3d a6 25 43 be
       0.08317649 0.06053085 0.089517765 -0.1905733
000240 62 63 69 3e e8 dd 79 b9 d8 ad 08 be ea e8 ff bd
       0.22791818 -0.00023829157 -0.13347566 -0.12495597
000250 f8 44 96 bd 53 2f 76 3e bc ef a5 bc 6d cd b1 3c
       -0.073373735 0.2404149 -0.020255916 0.0217044
000260 74 a1 83 bd 68 b0 94 bd 62 07 b6 3d 32 f5 f1 3c
       -0.06427279 -0.07260209 0.08888127 0.029535864
000270 09 fe 70 3e 2b a5 eb bc 09 09 0e be 23 81 0c 3d
       0.23534407 -0.028765282 -0.13870634 0.034302842
000280 93 6a ca 3c 8f 87 20 3e 73 39 b8 3d 14 c9 e2 3d
       0.024709022 0.15676711 0.089953326 0.11073509
000290 72 77 5f be df 28 ec bc bd 68 c8 3d 47 ce 00 3f
       -0.21822909 -0.028828083 0.09785602 0.50314754
0002a0 66 20 1b be 04 57 84 3d 6a 48 bf 3d 29 e8 6c be
       -0.15149078 0.064619094 0.09339984 -0.23135437
0002b0 02 0e e4 3d bc 4c 82 bc 50 27 31 bd ac 8a 98 3c
       0.11135484 -0.01590573 -0.043250382 0.018620811
0002c0 f4 3d 4f 3e 93 c9 7f bd 10 64 3b 3e 82 e4 04 bc
       0.20238477 -0.062448096 0.1829989 -0.008111121
0002d0 96 f1 ab 3d 75 6b 0f 3d 32 d9 38 be ae 39 01 be
       0.08395688 0.03501459 -0.18051603 -0.1261966
0002e0 0c 0d 8d 3d 5d ab 88 3d dd 5c 5d 3e 95 aa 62 be
       0.06887254 0.0667331 0.21617456 -0.22135384
0002f0 0f 7a 33 be 6e cc 2c 3c 29 0e c4 3d 35 68 a8 bc
       -0.1752703 0.010546787 0.09573013 -0.020557502
000300 86 51 a8 3c 77 34 a9 3c 72 11 8f bd 9a f4 f2 3c
       0.020546686 0.0206549 -0.06985749 0.02965765
000310 00 b0 84 3d ae 28 e9 bd 9c 37 2c bd 57 2f c6 3d
       0.06478882 -0.11384712 -0.04204522 0.09676998
000320 f1 28 58 bd 5b 38 08 bd 3a 21 59 3e 9e ad e3 bc
       -0.05277342 -0.03325687 0.21204081 -0.027792748
000330 63 3e 0b 3e 76 47 82 3e 50 f8 0c 3e 94 38 e9 bd
       0.13598017 0.25445145 0.13766599 -0.113877445
000340 0f 8a c2 3d 36 4e 78 be 30 e0 52 bd 86 b5 8d 3e
       0.09498989 -0.24248585 -0.051483333 0.27677554
000350 76 53 88 3d cd 7b 04 be c6 88 79 3e 0d c4 b0 bd
       0.06656544 -0.12937851 0.24368581 -0.08631144
000360 ed e5 b3 bc c6 44 91 3e 41 d5 e1 3d 2e eb 02 3e
       -0.021960223 0.28372782 0.11027003 0.12785026
000370 81 bf 1c be ff 02 c1 3c 2d 07 b5 bd ec 8c 02 be
       -0.15307428 0.023560999 -0.08839259 -0.1274907
000380 49 4d 31 be a0 8f 50 be 99 fb 55 3e 75 41 45 3e
       -0.17314638 -0.20367289 0.20896758 0.19263251
000390 f8 8a d1 bd f1 42 f4 bc d4 87 0a be d4 20 19 3e
       -0.10231584 -0.029817076 -0.13528377 0.14953929
0003a0 b0 bf 8c 3d 19 ba 8b 3d dd 78 04 be 1c a4 c5 3d
       0.06872499 0.06822605 -0.1293673 0.09650442
0003b0 1f 27 87 bd c7 a4 7c be 43 af b7 3d 91 a9 2d bc
       -0.06599259 -0.24672233 0.089689754 -0.01059951
0003c0 46 a6 97 3e 8c 2f d5 bd b3 8f 3a 3d 59 e5 1b be
       0.29619044 -0.104094595 0.0455472 -0.15224208
0003d0 cc 84 83 3d be d5 1d be 63 52 61 3d b5 02 a5 3d
       0.06421813 -0.15413567 0.05501021 0.08057157
0003e0 93 97 8c be 6c f5 f6 3c 5c c7 10 bd a6 1d 91 bd
       -0.27459392 0.030146323 -0.035346374 -0.07085733
0003f0 cf f4 85 bd 32 6c 6b 3e 1b e9 7b 3d 4f 91 32 be
       -0.06540834 0.22990492 0.061501604 -0.17438243

fc.bias f4 [10]
000000 df db 1f 3f ce 0a 51 3e 98 1f f8 3d a5 7b 75 3d
       0.6244487 0.20414278 0.12115401 0.05993237
000010 08 73 4b bc e3 9a 08 be 01 19 95 be f5 d9 a3 be
       -0.012417562 -0.13340335 -0.2912064 -0.32002226
000020 2f e0 63 be 95 9a 95 be
       -0.22253488 -0.292195
